checkpoints/PATTERN-100epochs.ckpt (torch, 274510 bytes, 36 tensors)

gat_layer_list.0.W.weight f4 [48, 3]
00000000: f1e0 3e3f 0588 8ebe 7644 debe 2ef4 b23e
00000010: ac18 75c0 6d16 47bf 474c dc3e 1d42 693e
00000020: 1223 71bf a67b 81bf 5a87 54c0 bbdc 24bf
00000030: ac86 643e b824 5dbc d639 3abe 32c1 8bbf
00000040: 2e61 67c0 5b73 0fbf bc9a 5f3e e5b2 d2bd
00000050: 04fd 0ebf 39e5 cc3e c61b 81bf ae6f a53e
00000060: 3ac7 e8bd c5b3 df3c 1a6c 88bd db24 aa3e
00000070: ae1d 1dbd 9700 05bf fd27 2ebf 5163 9ebe
00000080: 6aab 2d3e a921 083f 6029 b8bd 53d4 85bf
00000090: 4d3b c8bf a67f 0a40 5260 a2bf 2061 c23e
000000a0: a40a 53c0 eb75 9bbf 8fe7 a6be 3c5e 50be
000000b0: 79bf 0dbe 018d 7e3e 3d53 823d 6505 67bd
000000c0: 4a59 86bd d92e 15c0 0e9d 433e 6c36 e0bf
000000d0: fc4a e63f 21dd 1cbf 94be b3bc 2819 873d
000000e0: b0f8 023e 37dc d6bd 3ef1 673f 7b3e e0bf
000000f0: 1216 1bbf 905e 6ebd 6f1a 573f 9491 49be
00000100: 7b26 32be 7d64 e0bd ff10 56bd a5fd a93c
00000110: a3bc 183c 04cb d3be 1f79 38c0 4e9d b9be
00000120: 8c85 09bd e1f9 bdbc 733c 583d 1ef9 6cbe
00000130: 5759 e1bd 5f6c 2ebd ff84 c33a 3b34 f6bd
00000140: fe23 2ebe bb74 78be dfc3 af3e 558e 71be
00000150: aee7 f4bf 9b8f 1840 f2ad b1be 1a28 a1bf
00000160: 27f9 c33f 4ba1 c6bf 36c7 223e 8af0 0d3d
00000170: d0d4 f53d b3ce 9bbe a6f8 c93e 6086 d63d
00000180: 1396 c3bd d946 01bd 9c5d 87bc ba31 543f
00000190: 1351 ae3e e3c9 b8bf eb9e 04bd 6a15 833d
000001a0: ecd0 ae3d d63e 5e3d eacd 96bd 6a71 dabd
000001b0: 1b61 c3be 557d 083f ef64 343e 0ad3 d03d
000001c0: e207 9fbf 1159 853e e66d 8bbf 7e47 773f
000001d0: 4347 b23e 6557 2e3e 44ca a63e 2d3d b03e
000001e0: e9e0 ea3d ce76 903d b366 7d3d 470c 1bbe
000001f0: 09ef 7cbf 07e5 073f c0aa 913d 02f0 733c
00000200: 7d8d 17bd e439 e0bf 8a26 113f 16ab 3e3f
00000210: c187 13be dacb a0bd d547 fcbd c1cf 953d
00000220: 2a84 a3bd 0fd9 e5bd 1522 a33d 62ab a13d
00000230: 9a79 9c3d 6a0c 903c 208f e2bb 7a64 6c3c
0.74561983 -0.2783815 -0.43411607 0.3495192 -3.8296309 -0.77768594 0.43026945 0.22779126
-0.9419414 -1.011586 -3.3207612 -0.6439931 0.22316998 -0.013497524 -0.18186125 -1.0918334
-3.6153064 -0.56035393 0.2183637 -0.10288028 -0.5585482 0.40018633 -1.0086601 0.32311767
-0.113661245 0.0273074 -0.06661244 0.33231243 -0.038358383 -0.51954025 -0.6802977 -0.30935147
0.1695992 0.5317636 -0.08992267 -1.0455421 -1.5643097 2.164041 -1.2685645 0.37964725
-3.2975245 -1.2145361 -0.3259854 -0.20348448 -0.13842572 0.24858476 0.06363533 -0.05640163
-0.06559999 -2.3309844 0.1910288 -1.7516608 1.7991633 -0.61274916 -0.02194146 0.06596595
0.12790179 -0.104912214 0.9060248 -1.7519068 -0.6058055 -0.05819565 0.8402471 -0.1968444
-0.17397492 -0.109566666 -0.052262302 0.02075083 0.009322318 -0.41365826 -2.8823926 -0.36252826
-0.033574626 -0.02319044 0.052792024 -0.23141906 -0.11003368 -0.04258382 0.0014916955 -0.12021681
-0.17005917 -0.24263279 0.34329125 -0.23589452 -1.9133203 2.383765 -0.34703022 -1.2590363
1.531041 -1.5517973 0.15896305 0.034653224 0.120034814 -0.30431136 0.39447516 0.10474849
-0.09550109 -0.031561706 -0.016524129 0.82888377 0.3404623 -1.4436611 -0.03237812 0.06400569
0.085359424 0.054259144 -0.07363494 -0.10666163 -0.38160023 0.5331624 0.17616628 0.101965025
-1.2424281 0.26044515 -1.0892913 0.96593463 0.34819993 0.17025526 0.3257619 0.34421673
0.114686795 0.0705391 0.06186552 -0.15141402 -0.9880224 0.53083843 0.07112646 0.014888765
-0.037000168 -1.7517667 0.5669943 0.74479806 -0.14407255 -0.078513816 -0.123183884 0.073150165
-0.07984193 -0.11223041 0.07965485 0.07894017 0.07640381 0.017584044 -0.0069140345 0.014428252

gat_layer_list.0.a.weight f4 [4, 96]
00000000: 2383 d6bf 42a8 ebbf 0837 d03f 0b1e f9bf
00000010: 3d21 b73e ae6d 0ac0 e2d1 5e3f 4b5a 05c0
00000020: 0023 d03f 7099 b83e c1da a2bf 4388 873f
00000030: 1c8e b73d c5bd ea3d ba09 d7bc e3ff b9bc
00000040: e837 743c 8359 1ebe 51e1 ddbd f5af 41bd
00000050: e545 5abe 32fb 023e 87c8 1e3d f06e e43d
00000060: d85e 0840 218f e9bf d49a b73e 5ea4 afbf
00000070: e594 09c0 ea0b e93f 80e6 323f 28e9 e63f
00000080: f495 cdbd 8bd8 643f 71bc 4f3f 2c52 fcbf
00000090: 9144 e63d 1a7e a43e b7cb fd3d edcf 423e
000000a0: 45a6 8c3e 4b2a db3c 9d57 c0bd 9d46 403d
000000b0: 9cae 40bc 90e6 78be a8c6 84bd 2b0d 993c
000000c0: c9b7 9cbc b5aa d33f e539 efbf 62ad ed3f
000000d0: bb66 e53f 5587 0c40 92b0 87bf dc37 c03f
000000e0: c73e 32bf 302b 983f c0da f33f 7472 f2bf
000000f0: f781 74be ef13 ca3c 499e 083e d8ce 443d
00000100: 7b1f 82be bf0a 4dbd 3acd febd ba00 1e3e
00000110: 04af 203e c18b e63d 7d92 0d3e 89d8 703e
00000120: fc3d ff3f 6efc e9bf 918c c03f 10e5 fb3f
00000130: c2a3 3cbf 7208 e9bf 4681 bfbf 4ce1 933f
00000140: 385e a5be 0f17 123f 76fe c7bf 8f04 303f
00000150: 6f03 80bd 8d40 a9bd 5a72 dabd 2445 ca3c
00000160: 72de a53d bc0b 10be 47c1 063e 35ab 223e
00000170: 4628 7a3e 2843 67be 6303 1abd 6d25 273e
00000180: 9a5a dfbf 1438 2ec0 8dc1 1b40 c03c 32c0
00000190: 2785 123f 811f 23c0 c8c2 a43f 916a 1fc0
000001a0: 5bd8 1840 7305 273e f1cf f7bf ff4d db3f
000001b0: 2ab6 24be fcb2 923c b84f 21be 3e7f 513d
000001c0: 675e 20be 1029 fabd 7a68 1c3e 1346 3f3e
000001d0: 5d31 4c3d 52b7 363e b8eb b13d da8f 4c3d
000001e0: 2598 1840 9c24 1fc0 225f 763f 8295 f9bf
000001f0: 087a 28c0 0a34 3140 8a5d f53e ce8d 2840
00000200: ae52 dabe 5333 303f 3c95 653f 10dd 2bc0
00000210: 2060 3c3e fd8a 80be 9a6e a5bd 2128 48be
00000220: 1e8a e33e 0f7f a2be fe7a 113e 2a54 ddbc
00000230: 05eb a1be a028 3a3c 8151 fd3d 9fce 06be
00000240: 14e1 103e 2334 a43f 0d0c ffbf 8643 1b40
00000250: 9c5c 1940 fd12 2140 8e13 3fbf 36b3 0140
00000260: 61a9 09bf 45dc 0f40 c6c6 cc3f d490 bcbf
00000270: 4967 ec3d a224 57bb 9158 023e f756 81be
00000280: a221 c5bd aefc 6a3d c8c8 863d 1876 8cbb
00000290: 4e2a 8abd ca32 32be 381a 53be 274c d2bc
000002a0: 44a4 1340 fdf3 22c0 3d5d f53f 2534 983f
000002b0: 8b54 44be 0034 2ec0 32e0 84bf 636f ec3d
000002c0: 0ec1 bcbc afa1 a63f 649d 94bf 5236 1a3f
000002d0: 0e64 cdbd cc10 3ebe 1a37 3d3e a68d 283d
000002e0: 3422 7b3c 0152 123e 46af 19bd d68f 6c3e
000002f0: 2fa6 18be 1b06 80be 64fd 16be 432e 5fbe
00000300: d789 20bf 360f a5be 2e78 593e 7bc9 10be
00000310: 602c ae3d 5305 dbbe 82e9 c33e 8cec 48bd
00000320: e34d f03e b7a8 5cbe 80f7 f9be e2e9 f43e
00000330: 55e9 713a 4b66 4e3d 7822 08be 9c8f 903c
00000340: 6359 a23c 1ac5 ae3c 68d9 de3b 667c 14be
00000350: d3a0 523e 2f8c 603e d195 c23d a115 09be
00000360: 860a d73e efa0 9fbd 642b 353e 728c 03bf
00000370: 0e36 0cbf 5b31 213e a1bf ac3e 635f 023f
00000380: e696 13bf 7f6b ec3d 75a5 9b3e a717 18bf
00000390: 8640 1c3d 8268 0bbe cfb0 4cbd 2430 ae3d
000003a0: 1873 63be 62c5 19bd ab8d 783d 4780 81bd
000003b0: ab54 053e b7fe 273e 8edb d0bc 7385 00bc
000003c0: 74ae 7fbd d055 493e 006d 06bf 46a6 433e
000003d0: 539e 573d 481c 243e 59d2 f9be cbe7 923e
000003e0: 7549 06bf 8446 8b3e 630b 8c3e a693 4fbe
000003f0: 2902 d7bd 6415 f93d de59 96bd 783c 50bd
-1.675877 -1.8410723 1.6266794 -1.9462293 0.35767546 -2.1629443 0.87039006 -2.083636
1.6260681 0.36054564 -1.2723008 1.0588459 0.08962652 0.11461977 -0.026249755 -0.022705024
0.014905907 -0.15463834 -0.10833991 -0.047286946 -0.21315725 0.12791136 0.038765457 0.11153972
2.1307888 -1.8246804 0.35860312 -1.3722036 -2.1497128 1.8206761 0.69882965 1.8039904
-0.10038367 0.8939292 0.81146914 -1.9712577 0.11243547 0.32127458 0.12392371 0.1902463
0.27470604 0.026753565 -0.09391711 0.046942342 -0.01176038 -0.24306703 -0.06483203 0.018683037
-0.019130604 1.6536471 -1.8689543 1.8568537 1.7921976 2.19576 -1.060076 1.5017047
-0.6962704 1.188818 1.9051132 -1.8941178 -0.23877703 0.024667708 0.13341631 0.048048824
-0.25414643 -0.050059076 -0.124414876 0.15429965 0.15691763 0.11257125 0.13825412 0.23520102
1.9940791 -1.828016 1.5042897 1.9679279 -0.73687375 -1.8205702 -1.4961326 1.155313
-0.32298446 0.57066435 -1.562453 0.68756956 -0.06250655 -0.08264265 -0.10666342 0.024691172
0.08099069 -0.14066976 0.13159667 0.15885623 0.24429426 -0.22584212 -0.037600886 0.1632287
-1.7449524 -2.7221727 2.4336884 -2.784958 0.57234424 -2.5487978 1.2871943 -2.4908793
2.3882053 0.16310672 -1.9360334 1.7133178 -0.16085115 0.017907612 -0.15753067 0.05114674
-0.15661012 -0.12214863 0.1527423 0.18679075 0.049851764 0.17843369 0.08687538 0.049941875
2.3842862 -2.4866095 0.9623891 -1.9498751 -2.6324482 2.7688012 0.47922927 2.633655
-0.42641205 0.68828315 0.8968084 -2.6853676 0.18396044 -0.2510604 -0.08077736 -0.19546558
0.44441313 -0.31737563 0.14207074 -0.027017672 -0.31624618 0.011362225 0.12369061 -0.13164757
0.1414836 1.2828411 -1.9925553 2.4259963 2.3962774 2.516784 -0.74639213 2.0265632
-0.53774077 2.2478192 1.5998161 -1.4731698 0.115431376 -0.0032828231 0.12729098 -0.2526166
-0.096255556 0.05736988 0.06581265 -0.004286539 -0.0674635 -0.17402187 -0.2061547 -0.025671078
2.306901 -2.5461419 1.9169079 1.1890913 -0.19172876 -2.7219238 -1.0380919 0.11544683
-0.023041274 1.3018092 -1.1610532 0.60239136 -0.100288495 -0.18561095 0.18478051 0.04115071
0.015327979 0.14289095 -0.03752067 0.23101744 -0.14907144 -0.25004658 -0.14745098 -0.21794991
-0.62710327 -0.32238168 0.21237251 -0.14139359 0.085045576 -0.427775 0.3826409 -0.049053714
0.46934423 -0.21548735 -0.4882164 0.47834688 0.00092281896 0.050390523 -0.13294399 0.017646603
0.019818014 0.02133422 0.006800819 -0.14500579 0.20569162 0.21928476 0.095012315 -0.13387157
0.42000216 -0.077943675 0.17692333 -0.5138618 -0.5476998 0.15741484 0.3373995 0.509268
-0.5765213 0.11543941 0.3039967 -0.5941109 0.03814747 -0.13614085 -0.049973305 0.08505276
-0.22211874 -0.037541755 0.06068198 -0.06323295 0.1302058 0.1640576 -0.025495317 -0.007844317
-0.06242223 0.19661641 -0.5251007 0.19106397 0.052641224 0.16026413 -0.48793295 0.2869247
-0.52455837 0.27202237 0.27352437 -0.20271167 -0.10498459 0.12162283 -0.073413596 -0.050838917

gat_layer_list.1.W.weight f4 [96, 48]
00000000: 6124 7ebf 2966 043f 93c2 a6bf 3bb2 eb3e
00000010: 3a40 57bf 7c37 353f 0f3c 78bf d35c 8e3e
00000020: 970a a13e 6413 9cbf cfea bf3f cb87 cebf
00000030: 82d1 57be 9fd2 d53e 5c52 aa3f c707 a4bf
00000040: a2cd 763e 9e25 30be e58c 4d3f 4c08 34be
00000050: a2d7 b33f 2504 ecbe 7474 193f 46ac 353f
00000060: af58 efbe 86ed bebd a13c 34be 1679 923c
00000070: 9f72 073f 0606 eabe f9ee a6bf 44a8 5f3f
00000080: edd7 363e 6cb0 e4bf 55e6 8ebe bcfa 9e3d
00000090: ae5d 443e b158 d8bd 7f2e a03f e9b7 75be
000000a0: f04c 343d db0a 893f 0382 56bf 4c03 d13f
000000b0: 7928 80be c6a3 dabe e669 463f 6db6 7fbf
000000c0: a145 313e 90cc ebbf af1a 8a3e 4c03 e9bf
000000d0: 18bd 1a3e 864e e1bf a262 6e3e c764 25bf
000000e0: e323 353d 3675 433e 982a 4cbe b494 5a3e
000000f0: 48ff c53e 911d 03c0 fc4d c9bc 3996 cf3d
00000100: 63a6 bcbf 692b 0b3f 546d 7ebd af1d aa3e
00000110: 88e6 333d 7463 b43c 8272 2cbc f24f 01bf
00000120: e6ac 843d 73cf 8c3b fc42 e8bc f2d5 9d3e
00000130: 7e03 643e c5bf 53bc 27a7 da3c 13bb 003e
00000140: 0f8a 03be 2c97 8a3e 6294 b93d f804 84bd
00000150: f1ee 8abb f4cc aabe e5d0 eabd efa1 c4bd
00000160: 7246 4fbd e9da b0be 8697 ffbc 382d 2abc
00000170: b371 cbbc b3f8 0c3e f875 7dbd c16b ce3d
00000180: 51f8 dcbf 02bb 01be 30d6 483f f2ce 0d3e
00000190: b5ac b4be a1ae ff3d cd12 8f3d 0af3 0fbf
000001a0: 9d26 11bf eaf0 56be 3135 53bf 6444 223f
000001b0: 7d3b 193f 1e7f 9f3d 25fb 883e 3ec4 23be
000001c0: 70db 933e 6b3f e73e 5851 b1be 87c4 0240
000001d0: ce4c 9fbe ca20 d63e a546 3dbd 98b4 4d3f
000001e0: 0286 e03e 1dfc a4bc 1d15 4bbe d251 3d3f
000001f0: e957 fd3f a3d7 653f 05e4 233e 885f 9fbe
00000200: d298 0b3e 706e 2f3f 5f09 7ebd 1ca7 fb3c
00000210: e363 cd3f 94b3 dcbf f897 c93f 4eb1 023e
00000220: 8f33 72be 1f02 bdbf 1129 a53d b4e1 113f
00000230: ec21 493e 60f4 3dbe 5149 3d3e f2f5 283e
00000240: 1599 4c40 98da b43d 322c 373f 96b3 273f
00000250: a4ae 1540 bcaa 2d3f 5376 a03f 4307 1f3e
00000260: 4798 1040 f30e 5e3f 70f9 99be 3e34 e13e
00000270: 4827 09bf 89b2 a83f 208f 203f 7e52 44bf
00000280: e772 85bf 9172 88bf e88b 223d 37e0 a13e
00000290: 436d 6d3d 74f7 d13e caae 4d3f ea61 263e
000002a0: a622 37be 9731 c23e 32b6 7abe 7af1 383f
000002b0: 1142 923e 5711 0e40 5c69 c3be 5155 813f
000002c0: ee44 803e 49fe 103f c963 1d3f 340e 06bf
000002d0: fa6c e2bf 9a4a de3e 5f30 1dc0 6b96 193e
000002e0: edac 1abf bf49 af3e 83fc 46be 6563 df3e
000002f0: 6a8a 843e 6eb2 5f3f 3d24 05bf 7e03 ee3e
00000300: da2c 3bbe 0353 d23f 454f dabe 61ef b63f
00000310: eca6 a23d 7834 ce3f f68e 84bd 82b9 a93f
00000320: abd9 fc3e dfb9 b2be 183d 4b3f 1b02 29bf
00000330: 6ee5 03c0 067b c43f 742a 463f 0ef5 2ebf
00000340: bf78 863f decc 03c0 1aa5 71be a998 1cbf
00000350: 19dc 073f 999e b23e 0d20 203f 0795 b43f
00000360: 2362 f83c 04fe e5bc 726f 50be ae56 dfbd
00000370: fad0 9abf 989c f0bd 8271 cabe 20ef 0e3f
00000380: ae7b 203f 6907 69bf b341 b8bc 54a1 dbbc
00000390: 12c5 15bf db7f 0f3f fb50 983d a3be 143e
000003a0: 458b 89be e463 8b3f 8fc4 583d a0d6 223f
000003b0: 6820 b13e fce7 42bc 202f 78be 3943 033f
000003c0: e4be 94be ffb9 d0bf 77be 133f 21a4 84bf
000003d0: 34ea 053f f9e3 5bbf c60a 2e3f 9d28 c3bf
000003e0: 7910 933e a685 c83e 1658 6fbf c628 1b3f
000003f0: ce71 953f cd08 79bf 48f1 84bd 6975 86bc
-0.9927426 0.51718384 -1.3028129 0.46034417 -0.84082377 0.7078779 -0.9696664 0.27805194
0.31453392 -1.2193418 1.4993533 -1.6135191 -0.21076015 0.41762254 1.3306384 -1.2814873
0.2410188 -0.1720185 0.80293113 -0.1758129 1.4050181 -0.46096912 0.5994332 0.70965993
-0.46747348 -0.09322648 -0.17601253 0.017880004 0.5290927 -0.4570772 -1.3041679 0.8736613
0.17855807 -1.786634 -0.27910104 0.077626675 0.19176361 -0.105637915 1.251419 -0.23995937
0.044018686 1.0706438 -0.8379213 1.6329131 -0.25030878 -0.42703074 0.7750534 -0.99887735
0.17311718 -1.8421803 0.26973483 -1.8204131 0.15111196 -1.7602088 0.23279813 -0.646069
0.044223677 0.19087681 -0.19938123 0.21345788 0.38671327 -2.0486796 -0.024573319 0.101360746
-1.4738277 0.54363114 -0.062115982 0.33225772 0.043921024 0.02202008 -0.010525348 -0.5051261
0.0647829 0.004297191 -0.028352253 0.3082729 0.22266957 -0.012924139 0.026691033 0.12571363
-0.12845634 0.2706846 0.09061505 -0.0644626 -0.00423991 -0.33359492 -0.11465625 -0.09601199
-0.05060429 -0.34542015 -0.031200182 -0.010386758 -0.02483449 0.13766746 -0.061880082 0.10079146
-1.726328 -0.12668994 0.78451824 0.13848475 -0.35288015 0.1248448 0.06986008 -0.56230223
-0.56699544 -0.20990339 -0.8250304 0.63385606 0.59856397 0.077879176 0.26754108 -0.15992829
0.28878355 0.45165572 -0.34632373 2.043245 -0.31113285 0.4182189 -0.04620995 0.8035369
0.4385224 -0.020139748 -0.19832273 0.7395297 1.9792453 0.8978216 0.16004951 -0.31127572
0.13632515 0.6852789 -0.062020656 0.030719332 1.6046108 -1.7242303 1.5749502 0.12762949
-0.2365248 -1.4766272 0.080644734 0.5698502 0.19641846 -0.18550253 0.18484999 0.1650007
3.1968434 0.08830756 0.7155181 0.655084 2.3387842 0.67838645 1.253611 0.15530114
2.2592943 0.8674156 -0.30073118 0.4398517 -0.53575563 1.3179485 0.6271839 -0.76688373
-1.042569 -1.0659963 0.039684206 0.31616375 0.05796553 0.41009104 0.8034483 0.16248289
-0.17884311 0.3792846 -0.24483564 0.72243464 0.2856603 2.2198083 -0.3816632 1.0104162
0.2505259 0.5663801 0.61480385 -0.5236542 -1.7689507 0.4341629 -2.4560773 0.14998786
-0.60420114 0.3423595 -0.19432263 0.4363052 0.25886852 0.8738164 -0.5200842 0.4648704
-0.18278828 1.6431583 -0.42638603 1.4291803 0.07941994 1.6109762 -0.0647258 1.3259737
0.49384817 -0.34907433 0.79390097 -0.6601884 -2.0608783 1.5350044 0.7740853 -0.68342674
1.0505599 -2.059379 -0.23598137 -0.6117044 0.5307022 0.34886625 0.62548906 1.410798
0.030320233 -0.028075226 -0.20355013 -0.10905205 -1.2095025 -0.11748618 -0.39539725 0.55833626
0.6268872 -0.9102693 -0.022492265 -0.026810326 -0.5850383 0.56054467 0.07437321 0.14525847
-0.26864067 1.0889859 0.052921828 0.6360874 0.34595037 -0.01189613 -0.24236727 0.5127445
-0.29051888 -1.6306762 0.577125 -1.0362588 0.5231049 -0.85894734 0.6798519 -1.5246769
0.28723505 0.39164466 -0.93493783 0.6060909 1.1675355 -0.97279054 -0.06491333 -0.016413407

gat_layer_list.1.a.weight f4 [4, 192]
00000000: 75f0 853e 49e9 eabf f116 d8bf e36f f83e
00000010: 767f 3940 0e87 46c0 36a5 1a3e ce66 16c0
00000020: 83e1 00bf 8a4f 81bd b41d 1d40 b483 16be
00000030: c4ba 233f dba0 cf3f b40b 15c0 2356 23be
00000040: b405 30c0 254f 26c0 7804 34c0 95bb 2540
00000050: 54b9 903e 049c 20c0 ae7c 37c0 c428 79be
00000060: 5428 f43e ea62 33bf 8337 04be 043d 06bd
00000070: b750 4c3f e045 74bf 0fd2 943e b653 48bf
00000080: 2e39 2cbf beba 1abf e03d 2a3f d11d 4abe
00000090: 3c0e 9f3e 7966 3b3f 433e e3be bb43 8d3d
000000a0: 72e1 82bf da31 6cbf 10b0 8bbf ffed d53e
000000b0: 80c3 f8bd 32f7 51bf 945a 74bf bf5b 933c
000000c0: a90f d2be d9ca 893f 6909 c93e 4f08 0540
000000d0: f55c 1abe 6b04 1dc0 37d2 573e 63e1 fcbf
000000e0: 4741 b13e 6154 1f40 e68c 693e 70cc 0a40
000000f0: 5c1b 0840 7356 a83e 6564 6b3d 11b1 3040
00000100: a468 063e d016 e3bf 4de4 91bd 163b f13e
00000110: 35c9 233f 8cc5 383f 1de6 a83e cf0e 87be
00000120: d51a b1be c574 603d 5ece 4ebe 4b4f 293e
00000130: c2ad 6bbd 11ba 83bf a78b 83be 12f5 423e
00000140: 2c01 ee3e 74a4 4c3f ec0a 5abf b957 1d3f
00000150: b05c 233f 1181 b2be 1cd1 42be 56fa 543f
00000160: 4ed4 d8bd e0ae 823e f4ef 393f f46a a5be
00000170: b7da ae3b 84c2 f5bc 31ca e9bd bff8 623d
00000180: 2d6b 01bd 850e 28c0 c8fd 023d 7390 7abe
00000190: fa12 da3f 8f95 f33e be4b b63f dc48 2a3f
000001a0: f0ad 0540 7b69 323f 4865 013f 3cb9 f13d
000001b0: fdbb 483e 360c 563f d88f 11bf 2fcc c2be
000001c0: 2ecd 9e3d 447c 11c0 165a 743f 6e1e 593e
000001d0: 5f4c 15c0 39fb f53f 4263 cc3d cf3c 8d3e
000001e0: 7b26 0dbd c755 75bf 16a4 c5be 520e c4bc
000001f0: 0028 b53e b6a0 adbf 3d50 f03e d947 653f
00000200: ec3e 003f a1c1 f4be acc8 273d ef50 43be
00000210: 0e33 a93e a009 0d3f b1af 04bf 7118 203f
00000220: 1c69 8b3e aac0 20bf c5dd db3e 91ed 553f
00000230: 180c 30bf 106a 413f 9b5b 383d dad7 d83e
00000240: 0109 b93f dceb 4ebd 9f4a 0340 d5db 1640
00000250: 8445 8f3f a30e 283f f23a 52bf f03e dc3f
00000260: 4e94 e1be e429 f73d 8f45 3abf 93bc b83e
00000270: 88c2 d43f 95e6 a0be e801 243f 1489 fdbf
00000280: ad30 603f 7005 ec3e 31f5 2240 4a33 2d40
00000290: e561 29c0 84b5 943e 1e01 9d3f 4faa 2140
000002a0: 329b 583d 920c 073f e459 ef3e 2061 0a3f
000002b0: cb71 b93e de52 383e acac 813e 7e49 013f
000002c0: 6c96 c03e a860 2a3d 3cf5 18bd a9a5 fcbe
000002d0: 4939 c23e 4e3a f9be 9824 01bf 39e2 2ebf
000002e0: b111 0abe 21ce 02bf 445f 373f 020e 573f
000002f0: c0c9 44bf 882c 1cbe fc1d d73e 1380 203f
00000300: 6f07 153f 1e34 58be ad89 253f f824 72bf
00000310: 3f87 083f 33c5 d4be a0b3 70be f7c3 e6be
00000320: 1b59 8b3f be4a 7f3e 955f 4b3f f466 f0bf
00000330: 185b 8e3f 25c6 393f cad2 48bf c922 c7bc
00000340: bf55 80be dcbe 06bf 6719 c3be 9ad6 723e
00000350: f5a7 9fbe ee2b 00bf 3a9b aebe 613e 2d3f
00000360: 6ca9 abbc 1ae2 d2be 9211 43bc 8a31 b3bd
00000370: f2ee ed3e 4dd5 b2be 7801 243c 7262 efbe
00000380: 1e6b c6be f4ff 67bd 2a4a 013f 249d f43d
00000390: f48e 8a3c 424d b63e 161f 1cbc 2696 a8bc
000003a0: 5f3f 50be acec f0be d863 febe 4d13 4e3e
000003b0: cfbc 7dbe 611e 20be 4c3f 5bbe 8d0c e9bd
000003c0: b80f dbbe b2fa bebe 1e6d 8b3b d87c 0a3f
000003d0: 71bb 29bf 95b5 11bf c336 33bd 6fce febf
000003e0: 8343 a4be 41cb 953e be11 e7be 7f4c 803f
000003f0: de3a 013c cc87 c53e 3788 14be ff68 e53e
0.26160017 -1.8352443 -1.6882001 0.48522863 2.8984046 -3.101993 0.15102085 -2.3500247
-0.50344104 -0.06313999 2.454938 -0.14698678 0.63956857 1.6220964 -2.3288393 -0.15950827
-2.750348 -2.5985806 -2.8127728 2.589574 0.28266394 -2.5095224 -2.8669848 -0.24331957
0.47687018 -0.70072806 -0.12911801 -0.032773033 0.7981066 -0.9541912 0.29066512 -0.7825273
-0.6727475 -0.60441196 0.66500664 -0.19737937 0.31065547 0.73203236 -0.4438344 0.06897684
-1.022505 -0.9226357 -1.0913105 0.4178314 -0.12146664 -0.82017815 -0.9545071 0.017988084
-0.41027573 1.0765029 0.39264992 2.078632 -0.15074523 -2.4533947 0.21076284 -1.9756283
0.34620115 2.489525 0.22807655 2.1687279 2.12667 0.32878456 0.05746879 2.7608073
0.13125855 -1.7741337 -0.07123623 0.47115391 0.6397889 0.7217643 0.32988063 -0.26378486
-0.34590784 0.05479886 -0.2019591 0.16534154 -0.057538755 -1.0291158 -0.25692484 0.190388
0.4648527 0.79938436 -0.85172915 0.6146198 0.63813305 -0.34864095 -0.19025081 0.8319448
-0.10587369 0.25524044 0.72631764 -0.3230816 0.0053361314 -0.029999979 -0.11415518 0.055413004
-0.03159635 -2.6258862 0.031980306 -0.24469166 1.7037041 0.47575042 1.4241865 0.66517425
2.0887413 0.696922 0.5054517 0.11802909 0.19602962 0.8361238 -0.56860113 -0.38046405
0.07753979 -2.2732096 0.9544996 0.21203014 -2.3327863 1.9217292 0.099798694 0.27585456
-0.034460526 -0.9583401 -0.3860175 -0.02393261 0.3538208 -1.356467 0.46936217 0.89562756
0.5009601 -0.47803977 0.04096286 -0.19073842 0.33046764 0.5509281 -0.51830584 0.62537295
0.2722863 -0.6279398 0.42942634 0.8356562 -0.68768454 0.75552464 0.045009237 0.42352182
1.4455873 -0.0505179 2.0514295 2.3571675 1.119309 0.65647334 -0.82121193 1.7206707
-0.4405846 0.12068537 -0.7276239 0.3608137 1.6621866 -0.3142592 0.6406541 -1.9807458
0.87574273 0.46097898 2.5462153 2.7062554 -2.6466 0.29044735 1.2265966 2.5260198
0.05288238 0.52753556 0.4674827 0.5405445 0.3621963 0.18000361 0.2532705 0.50502765
0.37614763 0.041596085 -0.03734325 -0.4934514 0.3793433 -0.48677295 -0.5044646 -0.6831394
-0.13483311 -0.5109578 0.7162974 0.8400575 -0.76870346 -0.15251362 0.42015064 0.62695426
0.5821447 -0.21113631 0.646632 -0.9458766 0.5333137 -0.415567 -0.23506021 -0.45071384
1.0886568 0.24930856 0.7944272 -1.8781419 1.112155 0.7256797 -0.7844664 -0.024308579
-0.2506542 -0.5263498 -0.38105318 0.23714676 -0.3118283 -0.5006703 -0.34102803 0.6767331
-0.02095481 -0.41188127 -0.011906045 -0.08749683 0.46471363 -0.3492836 0.010010116 -0.46754795
-0.387536 -0.05664058 0.5050379 0.11944035 0.016913868 0.35605818 -0.009528896 -0.020579409
-0.20336674 -0.47055566 -0.4968555 0.2012455 -0.24779056 -0.15636589 -0.21410865 -0.11379347
-0.4278543 -0.3730064 0.004254951 0.54096746 -0.6630164 -0.569177 -0.043753397 -1.9906749
-0.32082757 0.29256633 -0.45130724 1.0023345 0.00788757 0.38580167 -0.14505087 0.44806668

gat_layer_list.2.W.weight f4 [48, 96]
00000000: 38a8 163e 47c5 07be e6b3 77bc b0d0 a13e
00000010: 954c 4cbf fd6d e7bd 2ad8 f63e e654 b4bc
00000020: 3d8d 5dbe 1bee 7f3e 845e 023e 832f 2c3d
00000030: b52a fe3d e825 173f af4c e33d 2091 f33e
00000040: 77d5 af3e 5c73 87bf 4116 49bf f7b4 91bf
00000050: 47af 143e 747f e43e b766 623e 45d0 9e3d
00000060: 0f91 babe b0f0 313f 4e14 a43d 8103 ad3e
00000070: e0bf f43d f8a6 b43e 06c6 32bc 65e1 993e
00000080: 83e9 833d 37cf 0b3e f157 423e 10aa 313e
00000090: 6dfb e9be 5c5c 9f3c 180e d0bd 618f f6bd
000000a0: 4558 16be 7395 a0bd 9a6e c53e 31f7 ca3e
000000b0: 654e efbe 9882 85bd 6260 ab3e f4e9 70bc
000000c0: 0e75 8c3e 3b81 143d 3fc1 5c3e c428 1d3d
000000d0: d4a9 793e b7e6 653e 10ea a4bd 2ff5 353e
000000e0: 971e 4dbe f88a 363d cda2 d4bd 59cc 11bc
000000f0: 556e 743e 6a86 37bd 7230 733d 5630 fabd
00000100: 8432 04bd ced3 55be 1869 05bc 25c5 8e3e
00000110: d382 fcbe 1e25 0b3e ac4f 213e 01b5 82be
00000120: 69a3 063f 54b8 1bbf 6c18 1d3f a1de 783f
00000130: 43f5 063e 2c9c 383f fbce c23e fbf7 c13e
00000140: e1ea d5be 5a90 b53d da5c e93d 4bae c93d
00000150: 18f3 813f 4485 19be e468 cabd 0d4a c73e
00000160: 6582 863e d928 963e 1c7a 6bbf ec9d 38be
00000170: b807 0dbf 62a2 803e 5570 223e dc02 5abf
00000180: 5450 c6bd 6a69 873d 2b88 2dbe cc34 64bf
00000190: e262 ccbf 93d1 3bbe cdc0 45be ca1e 12bc
000001a0: e140 2bbe e6b3 49bf 8a97 0d3d e86a d2be
000001b0: 3784 26be 9bbf 39bd d6c2 0cbe e7cc 09bf
000001c0: 80bd f0bd 62c7 a9bf 6e5f 70bf 7a31 21c0
000001d0: 4204 e7be bf6c 0c3f d63d 94be ca92 f4be
000001e0: b4a3 e2bd 40e7 65bf 3956 a1be 635f 77bf
000001f0: 73f8 12bf fe21 42bd 35be 83be 7c8e a9bf
00000200: f224 8bbe f968 c2bf c75c a9be 7fa9 a0bf
00000210: e575 84bf cfda 6dbe 38f7 353b afcf dfbf
00000220: 82c9 96be 930d a0be 59b5 2a3d c9bf e1be
00000230: a625 19bd abfb 08be 1882 9fbe 571d 5e3d
00000240: 2d33 07bf 3298 7bbe 8328 96be 5da2 abbe
00000250: cc29 13c0 1cd2 01bf dde1 dfbf 64ff 9dbd
00000260: 78fc cbbf bf1d b7be d36d d4bd 82eb d6be
00000270: b6c0 0bbf b4a4 173e ee49 6fbe 7233 5cbe
00000280: 0853 93be d007 72be ce53 6fbe 3907 87bd
00000290: 5b5c bfbf f872 15bf 8a6b febe 8b9b f9bd
000002a0: 57d2 16c0 de9b a6be 1e08 d4be 24be 50c0
000002b0: ef12 d3be 15ea a6bf 15ed 05be 4aec 22bf
000002c0: 710d c23c 2c52 6cbd 6e51 dfbe 8efe 98be
000002d0: 96b7 1ec0 cb91 57be c31d 71bd 2336 56be
000002e0: edc5 3ebd 459a 92be 745f bdbf f249 c1bf
000002f0: bfb4 d93e 45da edbe 6f6d cabe 3b1e fdbf
00000300: e0b2 0dbf ef05 11bf 7ac8 2ebf a606 b8bc
00000310: 510f 0d3f 8945 57be 74ad 813e 1061 113d
00000320: 60d9 12bf fbba dc3d 7274 783e 4f0d a7be
00000330: 6cfc eabe 38b5 e63e efcb 17bf 0133 df3f
00000340: 7768 013e 3951 493e 586e d03c 12a6 8b3e
00000350: 0b96 4fbe 2e75 4fbe d3ee 1e3f 19d5 773c
00000360: b4b8 233e 6674 92be 6f0e 0ebf 9f83 b6bf
00000370: 54a2 cebe 3a91 fdbe 69f3 443f eb74 42bf
00000380: 5609 ac3d f06a b7bd a4e8 afbe 1fbf 8d3f
00000390: da58 7bbe c31c f2be 99d9 cd3e 7edd 4dbd
000003a0: ebae 843f ae1c 8f3f cf61 93ba 21b2 1fbf
000003b0: ae01 c23d 1be7 513e cebd b1be 403c b73f
000003c0: a434 cfbe 8af7 75be 89b8 8ebe 7d4a b7be
000003d0: 4f0f 27bf a59e 71be c649 54bf 72f3 bd3d
000003e0: ebbe e5bd f4c8 44bd 8caf b53e cb83 ddbe
000003f0: da46 b8be 5d47 8d3e 8278 9bbf 58c5 c5be
0.14712608 -0.13258849 -0.015118575 0.31604528 -0.79804355 -0.113002755 0.48211795 -0.022013139
-0.2163591 0.24993174 0.12731367 0.0420375 0.124104895 0.59042215 0.110986106 0.4757166
0.34342548 -1.058208 -0.7854958 -1.1383351 0.14519988 0.4462849 0.22109495 0.07754568
-0.36438796 0.69507885 0.08011685 0.33791736 0.1195066 0.35283637 -0.01091147 0.30054775
0.06441023 0.13653265 0.1897886 0.1735003 -0.45699635 0.01945322 -0.10158938 -0.12039066
-0.1468211 -0.07841005 0.38560945 0.39641717 -0.46739498 -0.065190494 0.33471972 -0.014704216
0.27433056 0.036256056 0.21558093 0.038368955 0.2438119 0.22451292 -0.080524564 0.17769311
-0.200312 0.044566125 -0.10382614 -0.008898818 0.23870213 -0.04480592 0.059372373 -0.122162506
-0.032274738 -0.20881578 -0.008142732 0.27884784 -0.4931856 0.13588378 0.15753049 -0.2552872
0.52593094 -0.6082814 0.6136539 0.97214705 0.13179497 0.721133 0.3804854 0.37884507
-0.4178076 0.088654235 0.11394663 0.09847697 1.0152311 -0.14992243 -0.098832875 0.38923684
0.26271358 0.2932804 -0.919832 -0.18028992 -0.550899 0.25123888 0.15863164 -0.85160613
-0.0968329 0.06611903 -0.16946475 -0.8914306 -1.5967677 -0.18341665 -0.19311829 -0.0089184735
-0.16723968 -0.7879013 0.034568347 -0.41097188 -0.16261373 -0.045348745 -0.13746199 -0.5382828
-0.11754894 -1.3263972 -0.93895614 -2.5186448 -0.45120436 0.54853433 -0.28953427 -0.4776824
-0.1106638 -0.89805984 -0.31511095 -0.96629924 -0.57410353 -0.0473957 -0.25731054 -1.3246608
-0.27176625 -1.5188285 -0.33078596 -1.2551726 -1.0348479 -0.23228 0.0027765762 -1.7485255
-0.29450613 -0.31260356 0.041676853 -0.44091633 -0.03738942 -0.13377254 -0.3115394 0.0542272
-0.52812463 -0.24569777 -0.29327783 -0.3352231 -2.299426 -0.50711226 -1.7490803 -0.077147275
-1.5936422 -0.35764882 -0.1037251 -0.41976553 -0.5459093 0.14808923 -0.23368046 -0.21504
-0.28774285 -0.23635793 -0.23371813 -0.065931745 -1.495006 -0.58378553 -0.4969142 -0.121878706
-2.3565881 -0.32540792 -0.41412443 -3.2616053 -0.41225383 -1.3040186 -0.13078721 -0.636418
0.02368805 -0.057695553 -0.43616813 -0.2988171 -2.4799552 -0.2105171 -0.058866274 -0.20919089
-0.046575475 -0.28633323 -1.4794755 -1.5100691 0.4252071 -0.4645559 -0.39536616 -1.9774851
-0.55351067 -0.5664968 -0.6827465 -0.022464108 0.55101496 -0.2102262 0.25327647 0.035492957
-0.5736294 0.10777851 0.2426317 -0.3262734 -0.45895708 0.45060134 -0.5929555 1.743744
0.12637506 0.1965989 0.025443241 0.2727514 -0.2027208 -0.20259544 0.62083167 0.01512649
0.15988427 -0.2860443 -0.55490774 -1.4258918 -0.40358222 -0.49524862 0.76933914 -0.7595965
0.08400218 -0.089559436 -0.34357178 1.107395 -0.24545613 -0.47287568 0.40205076 -0.05026006
1.0365881 1.1180627 -0.0011244359 -0.6238118 0.094729766 0.20498316 -0.34715122 1.4315262
-0.4046985 -0.2402021 -0.27875164 -0.35799018 -0.65257734 -0.23595674 -0.8292507 0.09274949
-0.11218055 -0.048043206 0.35485494 -0.43264613 -0.35991555 0.27593508 -1.2146151 -0.38627124

gat_layer_list.2.a.weight f4 [4, 96]
00000000: dcc6 a33e e58b 943e 6ca6 e73d cb2e 063e
00000010: f63b 86be 2a53 eebf 85c3 f93e a56e 34bf
00000020: c20f 20bf 6de7 a23f 6ab9 41bf f08f 893e
00000030: 4c91 643c 866e cf3d 1bf0 703f 1117 7ebf
00000040: 016c 45bf b9b7 ea3f 5c87 4f3e e11f c7be
00000050: 852f a4be 1f87 8abf d5c6 4ebc 2c02 34bd
00000060: 8ebb ee3f 30ff ffbf a713 82c0 eec6 fd3e
00000070: c43e 6c40 d9e8 3240 fb65 0f3f 2781 3b3f
00000080: a54c 9ebf 3fed 1ec0 c082 6a40 e4e1 583f
00000090: 5845 2040 0075 833e 4f53 a0be 5bb4 d13f
000000a0: e3e5 ed3f a769 efbe 068f 26be dfcc 1fc0
000000b0: 11da fd3d 3af9 b6be 7250 6d3e 7c30 0540
000000c0: da1e 89bf 8d08 70be 8ac6 51bf a5a9 7fbf
000000d0: 628f 9e40 b2ba 0e40 2748 d1bc 2237 e13d
000000e0: 3f5b 9a40 db50 f5bc 5947 d3be c694 02c0
000000f0: 9f23 32bf 24a9 bfbd 7828 d13e 2c7a 83be
00000100: fe92 e9be 9e06 273f 589f f2be e364 da3e
00000110: f849 85be bc50 46be e605 a2be 2032 5ebe
00000120: b9d1 4e3f 7725 5dbf 4228 383e 6dbd fcbf
00000130: 8747 0340 0f33 0dc0 3bad af3f a9f8 1f40
00000140: ced6 e93f 9cce 2bc0 0ab7 3840 beb3 e8bf
00000150: c2b7 b1bf 4765 113d e4a4 cd3f 022e 7f3d
00000160: 1b44 8fbc ae41 97bf c0f7 573c 5b6b f3be
00000170: 67e9 a83e 3838 5d3d 513f 53be 8451 383f
00000180: 8718 0f3f b2bd 4240 8686 2fc0 4b81 b8be
00000190: d21b 2540 a468 883f 63af 04c0 91be de3f
000001a0: cd3b f1bf 6f3c 84bf b0af 1dc0 6bbb 44c0
000001b0: a6bb 54be 3977 463e 4e9d e23f 52f9 a640
000001c0: 90b5 863f 493d 26c0 1755 0840 1f56 f1bf
000001d0: 5057 aa3f 7e8f 9040 31b8 803f c5be c33f
000001e0: 7ba0 c8bf f520 0a3f 255d 8b3e d553 a2bf
000001f0: c1a2 25c0 8f1f 87bf d7ee 1dbf 21e4 2abf
00000200: 702d 16bf a1cf 193f 2f73 41bf 3f30 c7bc
00000210: 8758 483f 443c 48c0 c46d a6bd 9752 883e
00000220: 6bf0 0140 4775 f53e 09f8 c9bf 9dd5 e33e
00000230: 8103 30bf 6a33 32bf e47f 733e a719 95c0
00000240: 9384 ca3f c28f 1440 6d29 1c3c 8ac7 4e3f
00000250: 99b0 56c0 4e1f 673f 8d12 02c0 42d5 e7bf
00000260: 6f1a 29c0 0453 01c0 7fd2 2a40 c5f2 e73f
00000270: e705 443f 0de6 483e af0f 9a3f e176 51bf
00000280: 7953 4e3f 581a babe d3c4 5f3f dd3b c23f
00000290: f46e 213f aec0 3a3f a1e5 bd3e 1d5b 76bf
000002a0: cc5d 28c0 33b0 e73e e8b9 02bc d073 4dbe
000002b0: 945c 1ec0 e0e8 31bf 03db b03f 4a49 7dbf
000002c0: 52f2 53bf 14e1 a93e 2726 1ec0 3b8d c33f
000002d0: cc1b d340 908f ddc0 5306 ccbf 866a cd3f
000002e0: 4e4d ec3f 445b df3f eecb 963c 1ccc 1640
000002f0: 56fb 75bf cd28 3340 7042 f13f 87c0 09bf
00000300: 4d1a f73e 8bb9 9abe 6cbb 813f c5a5 a93e
00000310: 23cf 873d 6f84 82bf 2e10 fd3d 5558 7fbd
00000320: eaa2 c9bd 6e7c 9f3e 0731 a5bf 6475 debe
00000330: 6846 153e 20fe 64bf 0fd4 0bc0 0f31 6dbf
00000340: ca4b 77be f13c 56be dd22 333e 785f 59bd
00000350: 9490 dc3e a7a6 6cbf 7d0b 80be 4c2a 9bbf
00000360: a21e 19bf 5aac 213e 12ff 963f 7ad8 98bf
00000370: ebc7 5cbf 317a 15bf d470 6a3f 499d 2c3f
00000380: ac48 11c0 6d12 8dbe 5c2e b3bf 4ec1 49be
00000390: 6f69 ebbd 9819 6fbf bfe0 80bf 21c7 f03e
000003a0: cb61 3f3e 5bf9 3f3c ed13 4ec0 c0d7 48bf
000003b0: e4f2 793f cd85 15bd 7f2d 6d3f 7db8 1a40
000003c0: b554 ef3d 7cc3 0e3e 7f7f 623f a6d6 b33e
000003d0: eabe 45bf d4be aa3d 92e7 19bf 8c42 1b3d
000003e0: 0a06 87be 0f9f b4be 2def 52bd 3ef3 303e
000003f0: 6f04 30bf 1539 88be a83e 4f3e f983 8cbe
0.31987655 0.2901298 0.11311039 0.13103788 -0.26217622 -1.861913 0.48781982 -0.7048133
-0.62524045 1.2726876 -0.75673544 0.26867628 0.013950657 0.101285025 0.9411637 -0.99253947
-0.77117926 1.8337318 0.20266479 -0.3889151 -0.32067505 -1.0822486 -0.012620647 -0.043947384
1.8650987 -1.9999752 -4.064899 0.49565834 3.691331 2.795462 0.56014985 0.73243946
-1.236714 -2.4832304 3.6642303 0.8471968 2.5042324 0.256752 -0.3131356 1.6383165
1.8585781 -0.46760294 -0.16265497 -2.4968793 0.123951085 -0.3573702 0.23175219 2.0810843
-1.071254 -0.23440762 -0.8194357 -0.9986823 4.955003 2.230145 -0.0255471 0.10996844
4.8236384 -0.029945781 -0.4126537 -2.0403304 -0.69585603 -0.09358433 0.40851188 -0.25679147
-0.4561996 0.6524447 -0.47387195 0.42655095 -0.26032996 -0.19366735 -0.31645125 -0.21698809
0.8078876 -0.8638529 0.17984107 -1.9745308 2.0512407 -2.2062414 1.3724741 2.499552
1.8268678 -2.6844854 2.8861718 -1.8179853 -1.3884203 0.035496976 1.6065946 0.062299736
-0.01748853 -1.1816919 0.013181627 -0.47542843 0.32990572 0.054008693 -0.20629622 0.7199938
0.558968 3.042828 -2.7425857 -0.36036143 2.579823 1.0656934 -2.0732048 1.7401906
-1.8846375 -1.0330943 -2.463848 -3.073939 -0.20774707 0.19381417 1.7704256 5.2179346
1.0524158 -2.5974905 2.1301935 -1.8854407 1.3307896 4.517516 1.0056211 1.5292593
-1.5673975 0.5395654 0.272195 -1.2681834 -2.5880587 -1.0556506 -0.61692566 -0.6675435
-0.5866308 0.6008244 -0.7556638 -0.024314998 0.7826008 -3.1286783 -0.08126405 0.2662551
2.030299 0.47941038 -1.5778819 0.44498911 -0.68755347 -0.696097 0.23779255 -4.6593814
1.5821708 2.3212743 0.009531361 0.8077322 -3.3545287 0.9028214 -2.0323822 -1.8111956
-2.6422384 -2.0206919 2.6690977 1.8120962 0.76571506 0.19619007 1.2036036 -0.8182202
0.8059612 -0.36348224 0.87409705 1.5174519 0.63059926 0.72950256 0.37089255 -0.9623278
-2.630725 0.45251617 -0.007978894 -0.2006371 -2.4744005 -0.69495964 1.3816837 -0.98939955
-0.82791626 0.33179533 -2.4710786 1.5277475 6.597143 -6.9237747 -1.593943 1.6048133
1.8461092 1.7449727 0.018407788 2.3562078 -0.96086633 2.7993653 1.88484 -0.538094
0.48262253 -0.30219683 1.0135322 0.33134285 0.06631305 -1.0196666 0.12356602 -0.0623401
-0.098455265 0.3114962 -1.2905587 -0.43448937 0.14577639 -0.89450264 -2.184818 -0.9265298
-0.24150005 -0.20921685 0.17493768 -0.05306956 0.43079054 -0.9244179 -0.25008765 -1.2122283
-0.59812367 0.15788403 1.1796591 -1.1941063 -0.8624255 -0.58389574 0.9157841 0.674275
-2.2700605 -0.2755312 -1.3998523 -0.19702646 -0.11494719 -0.9339843 -1.0068587 0.47026923
0.18689649 0.011717166 -3.2199662 -0.7845421 0.97636247 -0.036504555 0.92647547 2.4175103
0.116860785 0.13941759 0.88475794 0.351247 -0.77244437 0.08337179 -0.60118973 0.03790526
-0.26371795 -0.35277602 -0.051497627 0.1728029 -0.68756765 -0.2660605 0.20238745 -0.27444437

gat_layer_list.3.W.weight f4 [1, 48]
00000000: ca0b 81bd 0d71 d53b 6992 0b3d 67ec 1a3c
00000010: 541e 403d a2e9 b13d c039 513d cb56 0e3e
00000020: 0d13 113e c5bf 383b 308d 083e b00a 8e3d
00000030: 0e59 913e f20f 973d 99e5 1abf 8b6b 973e
00000040: 361c dd3d 4bfc 9b3e 3cbe 5a3d 3d48 803d
00000050: 2fb1 983d abb3 c13d ca6b cd3d e042 543c
00000060: 09a9 063e 6d9a 89bc d5da 9b3e fd05 383c
00000070: 5301 9e3d 4a00 e93e 9ef6 f3bd 8e6c 93bd
00000080: eda8 da3e 64fe 36bf b704 4d3c bf8a 5f3e
00000090: 7e04 b43b 26cb 743d f2d0 a0bd 1d40 d83d
000000a0: 5c15 ffbd 9e49 fd3d 7c47 053e 028a 123e
000000b0: 0d46 e73d 5c27 f03d 4e49 40be 3c0c 1a3f
-0.06301077 0.006513721 0.034075174 0.009455777 0.046903923 0.0868714 0.051080465 0.13900296
0.14167424 0.0028190475 0.13335109 0.06935632 0.28388256 0.07376088 -0.6050659 0.29574236
0.107963964 0.30465922 0.053404078 0.06263778 0.0745567 0.09458097 0.10030325 0.012955397
0.1315042 -0.016797269 0.30440393 0.0112318965 0.07715096 0.45508033 -0.11912273 -0.071984395
0.42707005 -0.7148192 0.012513331 0.21830271 0.0054936996 0.05976405 -0.07852353 0.10559104
-0.12455246 0.12367557 0.1301555 0.14310458 0.11292658 0.11726257 -0.18777964 0.6017492

gat_layer_list.3.a.weight f4 [1, 2]
00000000: bd4c 30c1 47bf 02bf
-11.018735 -0.51073116

skip_layer_list.0.weight f4 [48, 3]
00000000: e404 123d 17bd d43d 01ab 103e bc37 06bf
00000010: d2ae adbe 46eb b3be fb3e 473b 9616 153a
00000020: 2194 0a3d a37e 0bbf 7347 1bbf 24bf f0be
00000030: 4c20 983c 5f65 f83c 9700 b3bc dc7a 2cbf
00000040: 46b2 19bf 6c24 ffbe 6734 0e3e 082e 193e
00000050: 2c33 fa3d d08b ed3d a051 333e 9e16 5b3e
00000060: e352 1c3d e755 683d 71fa 433d 2ff0 7d3d
00000070: 1eb0 b13d 99f4 c63d 341b 893e 76ce 883e
00000080: 4ce8 8e3e 104f 173e 667c 3d3e be34 0d3e
00000090: fde8 d2be 11d3 20be ff6e 84be 29ac 12bf
000000a0: 89d1 74be d3b8 dfbe 299f 6e3e a0a9 393e
000000b0: e143 623e 1ac2 95bd 9550 bc3c 86dc e0bb
000000c0: 0256 29be 1882 1cbf ae77 e03d db0c aebe
000000d0: 94e1 29be e2cc 3fbe 4d1b 70bd f9e3 d0bd
000000e0: 00e3 c3bd 2a54 90bb f09a 7cbe 9bc3 c8bd
000000f0: 5970 ee3b 77c6 5c39 48ba ae3c 07a1 793e
00000100: e5fe 383e e5bf 763e 4838 69bd 011a d2bc
00000110: cefc b2bc 119e b5be 5381 3fbf bd04 d1be
00000120: 2d55 e33c b1bd eebc 347a 5d3d 8818 323e
00000130: 5f09 be3d af81 363e 4d20 833d 319d ff3d
00000140: f5b0 a93d f7c2 e03d 0827 8b3d 4e94 c93d
00000150: cf32 c63d a93b c2bd dc9f a9bb 1d3d 45bf
00000160: 03ab 03bf d8c0 c8be 9766 cdbd d4de cebd
00000170: 1832 6dbd f38b 1fbd 6b4a 733e 1364 eabc
00000180: e678 533d 2b57 ecbc cd7f 8d3d 4c93 123d
00000190: b74d 3e3e db75 003e a89d 243c 11c6 c2ba
000001a0: 6150 623d 3217 93bb d3fb 073c dd11 50bd
000001b0: 5fdc 9abc 0c44 ebbd ef32 27bd b877 0d3e
000001c0: 23ae 5e3e fe3f 343e c48e 0f3e 2798 81bd
000001d0: ce27 df3c 2f5f 6ebe f756 a3be e01d 82be
000001e0: ed8f 0dbe 53ed b6bd 5334 b2bd 4a7e 353d
000001f0: a9ea 233e 8c7b 2e3d c8cf 9fbd 7ff0 66bc
00000200: 8bb6 1cbc 8cd4 4f3e 2b26 8a3e f0cd 8f3e
00000210: 38dd 0d3e 6146 de3d 9b82 f33d d49e 913d
00000220: 52e4 0f3e fffa 5e3d d8d3 f8bd 5371 43be
00000230: 4816 82bd c765 663c 47db 053a 1221 7b3d
0.035649195 0.103876285 0.14127733 -0.52428794 -0.3392244 -0.35140437 0.003040253 0.00056872645
0.033832673 -0.5449011 -0.606559 -0.4702083 0.018570088 0.030321775 -0.021850867 -0.6737497
-0.6003765 -0.49832475 0.13887177 0.14958966 0.122167915 0.11598933 0.17511606 0.21395347
0.038164984 0.056722548 0.04784626 0.061996635 0.0867617 0.09714622 0.26778567 0.26720017
0.27911603 0.14776254 0.18504485 0.13789651 -0.4119338 -0.15705515 -0.25865933 -0.57293946
-0.23908056 -0.43695697 0.23302902 0.18131113 0.22096206 -0.073124126 0.022987643 -0.006862226
-0.16536716 -0.6113601 0.10960327 -0.33994183 -0.16589957 -0.187305 -0.058619786 -0.10199732
-0.09564781 -0.0044045644 -0.24668479 -0.09802934 0.0072765765 0.00021054769 0.02132906 0.24377833
0.18065985 0.2409664 -0.05693844 -0.025647165 -0.021849062 -0.35472158 -0.7480671 -0.40823928
0.027750576 -0.029143186 0.05407162 0.1739217 0.09279131 0.17822908 0.06402645 0.12481154
0.08285705 0.109746866 0.06794554 0.0984274 0.0967766 -0.094840355 -0.0051765274 -0.77046376
-0.5143282 -0.39209628 -0.10029333 -0.10101095 -0.0579091 -0.038951825 0.23758857 -0.028612172
0.05162897 -0.028850159 0.06909142 0.035785004 0.18584333 0.12544958 0.010047354 -0.0014860054
0.055252437 -0.004488849 0.008299786 -0.050798286 -0.01890391 -0.11487588 -0.04082006 0.138152
0.21746115 0.17602536 0.14019305 -0.06327849 0.02724066 -0.23278497 -0.31902286 -0.25413418
-0.13824435 -0.08931985 -0.08701386 0.04430989 0.16007484 0.042598292 -0.07803303 -0.014095425
-0.009565006 0.20295924 0.26982245 0.28086805 0.1385392 0.108532675 0.118901454 0.07110372
0.14051941 0.054438587 -0.12149781 -0.19086199 -0.06351906 0.014062352 0.0005106222 0.061310835

skip_layer_list.1.weight f4 [96, 48]
00000000: 8200 b2be 4eb1 9d3f d4a5 9bbd 396d c53f
00000010: 8413 46be 74b0 b83f ad60 e6be 2a62 343f
00000020: ae21 dfbe 15dd b2be b358 9d3e 16c4 9bbe
00000030: 8047 96bf 56f6 a73f 31e5 8fbe 22f0 8c3e
00000040: 4911 953f 0fce 9fbf 2560 3bbf fbf1 113e
00000050: a7f9 e73e 6a75 6dbe 5752 ae3e 1b58 b43f
00000060: c115 c33d bb9d ecbe cfd1 ec3e 213c d9be
00000070: 4db2 ac3e 8334 c53f 79ca c63e 759b dfbe
00000080: dc05 e3bd e290 253c a554 e8be 5467 d53e
00000090: b9ba d23d a854 683e 3598 483e a173 e9be
000000a0: 3fc7 273e d1b0 f33d a441 7fbb 37c9 933e
000000b0: 27ce 6abe af87 c5be aba9 36be c56b 67bd
000000c0: b5c0 aabd aee0 ca3e d98a edbd 5e25 323e
000000d0: a857 f3bc 90a2 6a3b f6e3 a7bd ac6a b13c
000000e0: 1a6e 04bc e2ea b4bd ac8e c33c 3ae2 08be
000000f0: 66b8 dbbe 408b 283e cdd3 e8bc 2586 83bc
00000100: 6d2f ad3d 9649 dfbe bb75 75bc b615 cabd
00000110: f93b dd3c 43cc 673d bb78 1d3b 7dd8 923d
00000120: 1fdd a4bc 0a34 153a e09c 78bb 0a2d 28bd
00000130: 7581 873c 60bf 28be 490d 1b3d 81b7 b6bd
00000140: d9fc debb 8553 2ebe 1aa9 ca3a a877 c0bc
00000150: 2efe 9a3d c63b 733d 8083 f83d ba8e f43c
00000160: 2cca e8bc d00b 4e3c cae2 dabc d89e 39bd
00000170: d2ed 3b3d b170 48bd 504d 86bd 2f54 a8bc
00000180: 3122 e23f a7e8 323e bd72 0abe 9055 f23e
00000190: e5fe ce3e a87b 203f 7276 173e bc8f cc3e
000001a0: 77ea d53e c596 c83e 0339 ff3e cfac 2cbe
000001b0: 7de0 143d b9fe 973f b995 7bbd d27a 1b3e
000001c0: d1ed 9bbe 30ca 13be 2043 663e 68af 34bf
000001d0: 4803 0fbc 7df4 8cbe 6c55 70be b961 a7be
000001e0: 8ab0 8a3d 22e8 dbba 9a44 f33c 8bc4 71be
000001f0: 1dcc 87be d980 7a3f 6a7e c6be 60a3 103f
00000200: d2f6 00be 4578 40be 50b5 fabd 4ecd 0a3e
00000210: 2f05 b2bf 37ba 523f e166 dbbf c7bd 26be
00000220: dadb 803e d12f 6c3f 55a7 5abb b9b1 273e
00000230: fa3d d8bd a893 6a3e cc06 f73d fbd8 103e
00000240: 2a04 873e b430 683f 2324 133e b12b 853f
00000250: 4836 2d3e d880 953f f086 403e 5536 0a3f
00000260: 686c 6b3f ae36 f53d c900 073f 9740 bbbd
00000270: 3b0d b2be 9854 803f 5ffc 383f 3dea 5abe
00000280: 74c8 2a3f e370 a2be 43c2 5f3f 56ab 5cbe
00000290: af36 8e3e c717 cb3d 19de 0d3f 5283 e43f
000002a0: 2efd 31be 269f b73d 22be 8cbe 4c25 dd3e
000002b0: 1b7f c83e d71d fd3f b3df a3bf ccf8 a03f
000002c0: 1533 413e 6fc1 ef3e f883 a63e 3d0e 5fbe
000002d0: a78d 1cbf 95bd 30be e21a 9ebe 196e b43e
000002e0: f0ea c6bd 373b fe3e 9e68 e8bd 4673 193f
000002f0: 4455 04be 80ad a9bc 8f49 923c 0c7f 8b3d
00000300: 4732 68be fbca 06bf cde5 443e dcc1 69bd
00000310: 62fe 4d3e 4e95 b3be becf b9bd 750c 5a3e
00000320: 7e61 32bf 5d83 e2be d680 e4be e4ab 903d
00000330: b470 f83d bedb 31bf 7562 543f 4005 f93e
00000340: de46 673d 95c5 f53d fc6b 45bf 8a59 b63e
00000350: f78d 053d de59 a1bd 5d94 743e f75b 60be
00000360: 96cf 51bd fb89 1cbf 5e86 ce3e 7dff 5fbe
00000370: b944 c33e e714 873f 3a6b f33e 2539 5dbf
00000380: 67e9 0a3e 1135 82be 2303 0abe 795d ce3e
00000390: 455e 143f 8ad3 41bc 2ff6 9e3e 5d9e 09bf
000003a0: 4672 b3bd 2b58 b8be 5a19 ce3e 7123 9ebe
000003b0: 2cd0 1cbe ae5e c13d aa3c 1f3e 4427 823e
000003c0: 810b ac3b d53e 2840 a49a 6abd 97f4 2540
000003d0: 80ef df3d 5343 2540 dc43 e9bd a7ad a33f
000003e0: d050 163f bb6d 283d 7a34 443f 8df0 edbe
000003f0: c2bb 48c0 b3c7 2740 fa18 4d3f 8ef8 8cbe
-0.34766012 1.2319734 -0.075999886 1.5423957 -0.19343382 1.4428849 -0.44995633 0.70462286
-0.43580383 -0.34934297 0.30731735 -0.3042304 -1.174057 1.3122051 -0.28104547 0.27526957
1.16459 -1.2484759 -0.7319358 0.14252464 0.45307657 -0.23189321 0.34047195 1.4089388
0.095256336 -0.4621409 0.4625382 -0.42428687 0.33729783 1.540665 0.3882635 -0.43673292
-0.11085102 0.010105344 -0.4537708 0.41680396 0.10289521 0.22688544 0.19589312 -0.4559603
0.163846 0.118989594 -0.0038949037 0.28864452 -0.22930203 -0.3858008 -0.1783816 -0.05649926
-0.08337537 0.39624542 -0.11598749 0.17397067 -0.029704884 0.0035802461 -0.08197777 0.02165731
-0.008082891 -0.08833863 0.023871742 -0.13367549 -0.42914122 0.1645937 -0.028421307 -0.016055176
0.084563114 -0.4361083 -0.014981682 -0.09867422 0.027006136 0.056591284 0.002402826 0.07170198
-0.02012497 0.00056916534 -0.0037935302 -0.041058578 0.016541222 -0.16479254 0.037854467 -0.08921719
-0.006805044 -0.17024048 0.0015461773 -0.023494557 0.07568012 0.059383176 0.12134457 0.029853214
-0.028416716 0.0125760585 -0.02671947 -0.0453175 0.0458811 -0.048935596 -0.06557715 -0.020547954
1.7666684 0.17471562 -0.13520332 0.47330904 0.40428844 0.62688684 0.14791277 0.3995341
0.41780445 0.39177528 0.49848184 -0.16862796 0.0363469 1.187461 -0.061422084 0.15183571
-0.30454877 -0.14432597 0.22486544 -0.7058015 -0.00872881 -0.2753028 -0.23470086 -0.32691744
0.067719534 -0.0016777555 0.029695798 -0.23610131 -0.26522914 0.97852856 -0.3876832 0.5649929
-0.12594154 -0.18795879 -0.12241614 0.1355488 -1.3907832 0.8231539 -1.7140771 -0.16283332
0.25167733 0.9226046 -0.0033363898 0.1637639 -0.10558696 0.22907889 0.12061843 0.14145271
0.26370364 0.90699315 0.14369254 1.0403959 0.16915238 1.1679945 0.18801475 0.53989154
0.9196229 0.1197332 0.52735573 -0.09143179 -0.3477572 1.0025816 0.7226009 -0.21378417
0.6671212 -0.3172675 0.87405795 -0.21549734 0.27776095 0.099166445 0.5541702 1.7852576
-0.17381737 0.08965902 -0.2748881 0.43192518 0.39159474 1.9774731 -1.2802643 1.2575927
0.18867142 0.46827266 0.3252256 -0.21782775 -0.61153644 -0.1725982 -0.30879885 0.35240248
-0.097127795 0.49654552 -0.11348079 0.5994152 -0.12923151 -0.020712614 0.017857341 0.06811342
-0.2267543 -0.52653474 0.19228287 -0.057069644 0.2011657 -0.35074848 -0.09072827 0.21293814
-0.6968001 -0.44240847 -0.44629544 0.070640355 0.121308714 -0.69475925 0.82962734 0.48636818
0.05646407 0.120005764 -0.77117896 0.35615188 0.03260609 -0.07878469 0.23884721 -0.21910082
-0.05122336 -0.6114804 0.4033689 -0.21874805 0.3813837 1.0553254 0.47542745 -0.8641532
0.13565598 -0.2543111 -0.13477759 0.4030569 0.57956344 -0.01183022 0.31047198 -0.5375727
-0.0876203 -0.36004767 0.40253717 -0.30886415 -0.15313786 0.09441887 0.15550485 0.25420582
0.005250395 2.628835 -0.057276383 2.5930536 0.10934353 2.5822341 -0.11389896 1.278737
0.5871706 0.041120272 0.7664257 -0.46472588 -3.1364598 2.6215637 0.80116236 -0.27533382
