checkpoints/Pubmed-100epochs.ckpt (torch, 425005 bytes, 12 tensors)

gat_model.0.W.weight f4 [64, 500]
000000 45 3e 80 be 0b 21 15 3e e0 4d 37 bd 7e b8 45 bd
       -0.25047508 0.14563386 -0.044752 -0.04827165
000010 85 8b 46 bd e3 b2 d3 bd b4 37 33 bd fd ba 8a bc
       -0.0484729 -0.10336854 -0.043754295 -0.016934866
000020 ae 3e e3 bb 89 ad f4 3c eb 12 3a 3e f5 6e 27 3d
       -0.0069349622 0.029867904 0.18171279 0.0408773
000030 98 78 6a bd 9e 1c 59 3c 04 87 2d bd dd d4 84 bd
       -0.057243913 0.013251452 -0.04236509 -0.06485913
000040 b7 44 bb 3d 4c 8b a0 bd 35 f7 98 bd de 1e 60 3a
       0.09143966 -0.07839069 -0.07469026 0.00085495214
000050 38 8b 85 bd 30 52 89 bd 33 50 5f 3d 95 1a 06 be
       -0.065206945 -0.06705129 0.054519843 -0.13096078
000060 f2 f4 a6 3d b8 21 f6 bc dc 62 f8 3d 08 f3 ba bd
       0.08152188 -0.030045375 0.12128231 -0.09128386
000070 59 72 17 3e 56 3a 91 3c 4e c7 0b be 18 ec 86 bd
       0.14789714 0.017728012 -0.13650247 -0.06588
000080 ab 53 9f bd 39 e2 8f bd de 94 1a 3c 3f 46 ec bc
       -0.0777963 -0.070255704 0.009434907 -0.02884209
000090 aa b2 13 be 04 ef 4f bd e7 16 fa bc 3b d2 8f be
       -0.14423624 -0.050765052 -0.030528499 -0.2809008
0000a0 9b fb c1 bd 52 b6 cf bd 92 02 43 3d 40 b6 e4 bd
       -0.09471818 -0.10142197 0.047609873 -0.11167574
0000b0 d1 83 6d 3c 4c 9f 1f bd 44 72 64 3d fd 74 06 bd
       0.0144967595 -0.038970277 0.055773035 -0.032826412
0000c0 fa 4e 11 bd 45 23 00 3d 92 7e 98 3d 69 4c 5f 3c
       -0.03547571 0.031283636 0.07446016 0.013629057
0000d0 45 43 51 3d 45 39 93 bd 7e 69 c0 bd 83 ab 20 3b
       0.051089544 -0.07188658 -0.09395121 0.0024516291
0000e0 b7 92 bb 3c a3 5b e4 3c 4d 78 0b 3e a5 82 d7 bd
       0.022897108 0.027875727 0.1362011 -0.10522965
0000f0 99 8e 63 bd 9e 55 f1 bc 34 15 66 bd 39 a3 1e bd
       -0.055555914 -0.02945977 -0.056172565 -0.03872988
000100 28 53 3f bc 7b 8c 2c 3d f0 12 a5 bb 96 23 c6 3b
       -0.011677541 0.04212616 -0.005037658 0.0060467226
000110 66 70 85 3d b5 75 7c 3d 53 09 f7 3c 01 e7 88 3d
       0.06515579 0.06163569 0.030155813 0.066846855
000120 bd 5e 4e 3d ed 21 a5 bd b3 92 bd bc 11 1c 36 3d
       0.05038332 -0.080631115 -0.02314124 0.04446036
000130 e6 17 91 bd 5b 09 c0 bd 72 8e a2 bd 45 e9 98 3d
       -0.070846364 -0.093767844 -0.079373255 0.07466368
000140 73 ac da 3c 4e d9 2a bd 0f 30 57 bd a2 69 de bc
       0.026693558 -0.041711144 -0.052536067 -0.027149979
000150 dd de e6 3c 04 6f 44 3e 44 b2 1c 3e 9e 27 ff 3c
       0.028182441 0.19182974 0.15302378 0.03114682
000160 bc f5 7d 3d 55 d9 d4 bb 82 c6 35 bd 89 ee 21 3d
       0.06200193 -0.0064956346 -0.044378765 0.039534125
000170 78 09 fd 3d 25 a0 90 bc 79 90 52 bc b5 ce 81 3d
       0.12355322 -0.017654488 -0.012851828 0.06338254
000180 b5 f4 8d 3d 0b c6 2a bd da fe 34 be d9 a1 b4 3c
       0.0693144 -0.041692775 -0.17675343 0.022049831
000190 c9 98 c6 bd e7 7d 43 3e 00 09 81 3e 9f 1e 1b 3e
       -0.0969711 0.19090997 0.2520218 0.151484
0001a0 03 cd 68 bd 18 f9 19 3c 32 17 bb 3d 5f da f6 3c
       -0.05683614 0.0093977675 0.091352835 0.030133424
0001b0 62 de 2a bc 9c 43 31 bb 40 a2 90 3c cc 6d 66 be
       -0.010428997 -0.0027048355 0.017655492 -0.22502822
0001c0 9c 34 23 3d e5 a0 55 3c 98 91 83 bb e5 bb 17 bd
       0.039845094 0.0130388485 -0.004015159 -0.037044425
0001d0 ec 66 a9 3d 60 3c 56 3d 7d 1b 71 3c 04 6f 0d 3e
       0.08271584 0.05230367 0.014716026 0.1381188
0001e0 8d 85 24 3d 5b 4a 8c bd ba 11 4b 3d ef 76 2f 3e
       0.040166426 -0.0685012 0.049577452 0.17135213
0001f0 38 91 e3 bb 02 f1 12 be 4d 91 99 bd 80 9e eb bc
       -0.0069448017 -0.1434975 -0.07498417 -0.028762102
000200 e6 07 2a 3d 01 be ac 3d fc 5a 41 3c 80 2e 2c 3d
       0.04151144 0.08434678 0.0118014775 0.042036533
000210 8c 93 2f bd bc be 44 bd a3 bb 80 bc c6 0f f3 bb
       -0.04286532 -0.04803346 -0.015714472 -0.007417652
000220 a4 8f 48 bd f3 bf 93 3d b8 b5 fd bd 28 a6 60 be
       -0.04896511 0.07214346 -0.12388176 -0.21938384
000230 80 35 0c bd d2 3d f7 bd 4f 41 51 3d e4 8f 83 bc
       -0.03423071 -0.12072338 0.051087674 -0.016059823
000240 25 09 1f bd d7 39 e7 bc 53 76 c2 3c f4 97 2f bd
       -0.03882708 -0.028225822 0.023738062 -0.042869523
000250 d0 8f 52 3d 7f 19 a2 3c 4f 75 7f bd df 46 5f 3d
       0.05140668 0.019787548 -0.062367734 0.054510947
000260 4c e7 b8 bb ce ca e2 bc 6a bf 37 bd f6 ec 51 bc
       -0.005642807 -0.027684595 -0.04486028 -0.012812844
000270 34 81 99 bd 7a 44 5c bd b8 a5 de bb e9 2e da bd
       -0.07495347 -0.05377624 -0.0067946576 -0.10653479
000280 6b ef 31 3e 2b 5c b5 3c 4d 6e 03 be 9d 81 b6 3a
       0.17376487 0.022138676 -0.12835045 0.0013924126
000290 dd f8 5b 3d 37 92 36 bc 17 46 2c 3e f6 25 e6 bc
       0.05370413 -0.011143259 0.16823612 -0.028094273
0002a0 76 73 ab bc f3 8e 74 3d c3 fd 09 3e 97 43 c6 bc
       -0.02092908 0.05970664 0.13475709 -0.024202151
0002b0 61 2d c9 3c ad db a6 3b d7 68 ed 3c 9a 06 5b 3d
       0.024557771 0.0050921054 0.028980656 0.053473093
0002c0 f7 40 42 3d bb 97 f0 3a 37 49 90 3d 63 d7 1e bd
       0.047425237 0.0018355766 0.070452146 -0.038779628
0002d0 fe 6b 9e bd f6 82 83 3d 1d 31 79 3d 36 98 b3 bd
       -0.077354416 0.06421463 0.060837854 -0.08769266
0002e0 31 13 9a bd 6f 5a 88 bd ff c8 ea 3c 95 b2 f5 3b
       -0.07523192 -0.06657874 0.028660296 0.0074980953
0002f0 b0 7c 2e 3d 2b c1 89 ba 6c 0b ae 3c ac d8 a4 3d
       0.04259938 -0.0010509839 0.02124568 0.080491394
000300 34 04 dc 3d d7 cb 82 bc dd d4 79 3d d7 9e 3a bd
       0.10742989 -0.015966339 0.060994018 -0.045561638
000310 58 45 4d be be 47 a6 bd 97 f6 74 3d bd 89 ee 3c
       -0.20045984 -0.081191525 0.05980548 0.029118413
000320 35 8c a5 bd 12 97 02 3d 90 de 46 bd d2 8f a6 bd
       -0.08083383 0.031882353 -0.048552096 -0.081329
000330 ff 65 87 bc 46 e6 16 be 18 2f bc 3d 6d 02 ce 3c
       -0.016528128 -0.1473628 0.0918867 0.025147641
000340 1b d3 a4 bd b4 be 85 bd dc 47 dd 3c 22 f3 7e 3d
       -0.08048078 -0.06530514 0.027011804 0.06224359
000350 aa 19 78 3e 34 b3 87 3d 28 20 00 bd 6f 38 1d be
       0.2422854 0.06625977 -0.031280667 -0.15353559
000360 a7 7f 39 bd 63 00 c5 3d 9a 0f 19 3d 8a 56 38 3e
       -0.045287754 0.096192144 0.037368394 0.18001762
000370 2b b0 29 bc 6e d9 0e be 94 8f e5 bd 1d 96 8a bd
       -0.010356943 -0.1395013 -0.11209026 -0.06766913
000380 d2 1d 8c bd ff b6 18 3d c5 69 36 be 43 dd 66 bd
       -0.06841625 0.037283894 -0.17813785 -0.056363355
000390 c3 f8 33 3e 25 12 fb bb 20 a8 cb bc 65 7f b9 3c
       0.17575364 -0.007662075 -0.024860442 0.022643754
0003a0 84 40 0b 3e 2c bb 04 3e 64 76 a7 3d 2e 9f 8d 3e
       0.1359883 0.12962025 0.08176878 0.27660507
0003b0 30 96 fd 3c f3 b2 8b 3d a6 bd cb 3c b0 22 97 3e
       0.030955404 0.06821241 0.024870705 0.29518652
0003c0 c2 22 19 3e 68 77 04 3d 5a 61 b6 3c b7 23 73 3d
       0.14954665 0.032340437 0.022263218 0.059360232
0003d0 7f 0f 6b 3e 36 62 60 bb 5f 25 31 bd 91 80 29 bd
       0.2295513 -0.0034238226 -0.04324853 -0.041382376
0003e0 fa a7 14 3d 6a 9c fa bd a4 dd 8b 3d 53 75 09 3e
       0.036293007 -0.12236865 0.06829384 0.13423662
0003f0 fe ff f6 bc ed c3 10 bd 3f f2 2e 3d a0 16 36 3d
       -0.030151363 -0.0353431 0.042711493 0.04445517

gat_model.0.a.weight f4 [8, 128]
000000 c4 ed ef ba 6c 40 0a ba 2b dc 77 3a af 8f 49 bb
       -0.0018305113 -0.0005273882 0.000945511 -0.0030755808
000010 cf 78 37 3b b3 46 91 ba 7d b6 59 3b 76 9c 09 3b
       0.0027995592 -0.0011083692 0.0033220344 0.00209978
000020 93 3f f3 b8 b8 cb 09 ba 48 a9 00 ba c9 37 f6 39
       -0.000115989846 -0.0005256492 -0.00049080374 0.0004696234
000030 cd c4 f5 38 82 d0 93 3a 67 56 e2 39 fc 5b 80 ba
       0.000117191674 0.001127735 0.00043170454 -0.0009793038
000040 3d 4c 8e 3b d6 8d 01 ba a7 b7 64 bb b3 7d 18 ba
       0.0043425844 -0.00049420947 -0.0034899504 -0.00058170705
000050 4b 88 35 bb 7a a6 e7 ba ae 7a 2c bb cf e7 25 3b
       -0.0027699645 -0.0017673515 -0.002631824 0.002531517
000060 2f 88 cd b9 96 cc f2 b8 d4 87 cd b9 d0 3f 82 39
       -0.00039202112 -0.00011577566 -0.00039201847 0.00024843076
000070 69 12 56 ba ca 5a ab b9 28 4a 5b b8 aa a7 f2 39
       -0.00081661955 -0.00032683305 -5.2282732e-05 0.00046282756
000080 55 cb 49 bb 21 b8 4d 3b 27 e8 28 3b a8 6a 3b 3a
       -0.0030791361 0.0031390267 0.002577314 0.0007149377
000090 ff 00 72 3a 0e 08 0f 3b e6 08 ab ba 94 36 74 bb
       0.0009231716 0.002182487 -0.0013048917 -0.0037263976
0000a0 3e 8d f9 b8 43 c5 6b 39 01 1b 23 3a 3b 0a 6b b8
       -0.00011899554 0.00022484832 0.00062219804 -5.6037894e-05
0000b0 12 d0 b6 b9 f8 a4 93 b9 b1 17 92 ba 78 28 d6 b8
       -0.0003486877 -0.00028160936 -0.0011145977 -0.00010211853
0000c0 d3 6e 8c ba 66 30 53 3a 23 c9 e2 ba 17 e6 9c 3a
       -0.001071418 0.0008056223 -0.0017302375 0.0011970428
0000d0 58 b4 91 ba 9a 86 19 3b aa 78 3b bb 25 6b 3a bb
       -0.0011116369 0.0023426176 -0.0028605857 -0.002844521
0000e0 e2 a8 59 39 19 e4 0f ba 77 b0 ee b9 08 87 e8 b9
       0.00020757646 -0.0005489006 -0.00045526374 -0.00044351094
0000f0 35 bc 0f 3a 4f 90 6a b8 30 ee 2e 38 48 e6 f5 b9
       0.0005483062 -5.5924345e-05 4.1706662e-05 -0.00046901614
000100 c3 a4 8e b9 e7 8e ea 3a b6 4a 88 3b f3 3b 69 bb
       -0.00027207108 0.0017895371 0.004159297 -0.003558871
000110 d1 39 e5 ba 75 c0 f3 ba 03 53 ff 3a 54 5f fe b9
       -0.0017488544 -0.0018596785 0.0019479695 -0.0004851768
000120 6d fe 58 37 e8 6b 01 39 f2 8c 36 3a d3 5c b6 b9
       1.2933841e-05 0.00012342597 0.00069637515 -0.00034782905
000130 7a d3 ca b9 02 40 94 b9 c8 88 61 38 f4 fd 56 b9
       -0.00038686005 -0.0002827645 5.3771568e-05 -0.00020503235
000140 85 f4 c2 ba 02 b1 49 bb eb fe 83 3a 1d 73 cb 37
       -0.0014873898 -0.003077567 0.0010070478 2.425309e-05
000150 6d 25 ed 3a 2c b8 48 3a 37 07 39 3b 2b b5 09 bb
       0.0018092819 0.0007656838 0.002823306 -0.0021012526
000160 4e e2 1b 39 f6 43 5e 3a 38 7f 11 3a c9 a6 7d ba
       0.00014866257 0.0008478755 0.0005550268 -0.0009676037
000170 5c b6 6c b9 eb 11 b9 39 da e9 75 39 84 cc 8e b9
       -0.00022574648 0.000352993 0.00023452137 -0.00027236727
000180 46 cf 05 3a 31 ea 23 3b 03 cd 9c bb 8d 02 25 3a
       0.00051044335 0.0025011415 -0.0047851815 0.00062946306
000190 40 ce 9e 3b 6e d9 ab 3a 61 b8 91 b9 e4 e7 3c bb
       0.0048463643 0.0013111064 -0.00027793928 -0.002882474
0001a0 52 0a e9 b9 05 d9 3e 38 b4 87 87 ba b0 a5 15 b9
       -0.00044448912 4.5501645e-05 -0.0010340125 -0.0001427147
0001b0 ad dd 95 38 77 ef 54 3a 2b cc b7 39 1f 2d 10 38
       7.146164e-05 0.0008122841 0.00035056597 3.4374298e-05
0001c0 c8 48 46 ba ef 08 ac 3a 05 8f 54 3b 33 fa 4c bb
       -0.0007563946 0.0013125221 0.003243388 -0.003127706
0001d0 07 2e 56 bb 9b 36 12 ba f5 b3 07 ba 51 e0 07 3b
       -0.0032681243 -0.0005577595 -0.0005176657 0.0020733068
0001e0 8f 6a 00 ba ca 09 3a ba 73 a5 b7 38 9c 5b a4 b9
       -0.0004898691 -0.00070967956 8.756937e-05 -0.00031348772
0001f0 73 22 07 b7 bb 05 18 39 6b f2 64 36 f2 5b 0c 39
       -8.054648e-06 0.00014497984 3.4115753e-06 0.00013385693
000200 1f 6a 5b bb 12 a9 c9 3a 21 bb ae 3b ee 67 83 bb
       -0.003348 0.001538547 0.005332366 -0.004010192
000210 2d 89 e9 3b 6b 3a c0 bb c3 3f 64 3b ca 37 27 3c
       0.0071269483 -0.005866339 0.0034828044 0.010206172
000220 bb 3d 04 ba ec 4c 12 ba 23 ee 95 b9 d6 45 93 38
       -0.0005044599 -0.000558092 -0.0002859692 7.022514e-05
000230 6b 61 8c 38 a9 e4 af b9 47 b9 8f 39 e8 3f 91 ba
       6.693866e-05 -0.00033548966 0.00027413128 -0.0011081668
000240 8e 6b d2 3b 9a f7 a0 3b 1e 7f fb bb de 9e 49 bb
       0.006421513 0.004912329 -0.0076750657 -0.0030764858
000250 90 c7 62 bb 59 98 43 bc e1 f0 db bb 8e 92 03 3c
       -0.0034603812 -0.011938178 -0.0067120646 0.008030547
000260 8a 16 4d 3a 2d c5 48 ba b4 a5 12 b9 7d da 1a 38
       0.0007823488 -0.0007658776 -0.00013985374 3.6919944e-05
000270 d1 69 c1 b8 69 03 31 3a a4 70 67 b9 26 05 e3 b9
       -9.222667e-05 0.00067525223 -0.00022071839 -0.0004330065
000280 b3 b5 9c bb 41 52 60 3c b3 09 ad 3b 1d c9 8a b7
       -0.0047824024 0.013691486 0.0052806973 -1.6544533e-05
000290 5e 52 02 3c ca 10 02 3c ba 91 c4 bb 8d 64 7d bb
       0.007954208 0.007938573 -0.0059988173 -0.003866467
0002a0 c9 62 9a b7 00 f1 b6 39 a0 56 b6 b9 5a ed cd 39
       -1.8404231e-05 0.00034893304 -0.00034778286 0.00039277488
0002b0 d1 f6 20 b9 a5 98 10 ba ae c7 b5 38 28 3c 5c 38
       -0.00015350735 -0.000551591 8.667946e-05 5.2508112e-05
0002c0 ba e1 cc bb d1 7a b1 3b 91 63 82 bb 8c 54 01 3c
       -0.0062524946 0.005416252 -0.0039791544 0.007893693
0002d0 bd 3e 81 bb 2c c1 19 3c 6b 1c f5 39 ed af ed bb
       -0.0039442466 0.009384435 0.00046751215 -0.007253638
0002e0 e5 85 32 b8 31 4f 39 b8 2a e9 3f b6 8d 06 8c b9
       -4.2563206e-05 -4.418119e-05 -2.8596937e-06 -0.00026707762
0002f0 24 b7 c2 b7 78 c4 cb b8 5e 84 96 b9 ac 1c 84 b9
       -2.3211884e-05 -9.7163895e-05 -0.0002870885 -0.00025198364
000300 fe 67 df bb da 65 06 3c 62 f2 0a 3a 56 08 9e bb
       -0.0068178168 0.008202994 0.00053004 -0.004822771
000310 36 22 d0 bb d9 04 f9 37 a1 1f e3 3b 83 67 d7 bb
       -0.0063517345 2.968537e-05 0.0069312607 -0.006573619
000320 d5 01 e2 b8 81 74 d3 b6 f9 be 7c 3a bf eb 16 3a
       -0.00010776861 -6.301853e-06 0.0009641494 0.0005757175
000330 ab d1 26 37 10 a1 b3 39 fb 92 ca 39 56 1b c1 39
       9.943188e-06 0.0003426154 0.0003863795 0.00036832195
000340 d5 8d 78 bb 13 0d a9 bb a4 bf db 38 22 30 ac bb
       -0.0037926335 -0.0051590293 0.000104784296 -0.0052547613
000350 8f 30 a0 3b f1 ab 1a 3c 2a ce b6 3b 2a 9b ff bb
       0.004888601 0.009440408 0.005578776 -0.0078004794
000360 a0 e6 b8 b9 60 c9 ec b8 98 4e c4 38 37 c2 9c b8
       -0.00035267044 -0.00011290866 9.3606475e-05 -7.474835e-05
000370 f7 83 d6 39 77 7b bd b9 48 4b c7 b7 5e ca 8a b8
       0.00040915582 -0.00036140878 -2.3757704e-05 -6.6180466e-05
000380 23 05 09 3c ae 63 ae 3b 09 ff ea bb fe 84 25 bb
       0.008363041 0.0053219413 -0.007171516 -0.0025256271
000390 73 92 bb 3b 61 54 b9 3b 31 ec 93 bb 24 4c bd bb
       0.005724245 0.0056558107 -0.00451424 -0.005776899
0003a0 07 36 15 39 11 3f a0 36 f9 55 90 39 13 9e 07 b9
       0.00014229874 4.7757135e-06 0.00027529875 -0.0001293349
0003b0 75 83 82 ba 44 90 82 3a 2e bd f3 b8 4a 65 aa 38
       -0.000995739 0.0009961207 -0.000116223804 8.125098e-05
0003c0 d1 11 fa bb f2 3a f2 3b b4 3b f0 3b f4 9d e0 bb
       -0.0076315184 0.0073922807 0.007331336 -0.006854767
0003d0 be 96 8a bb 4f e8 92 bb 4f 6c b6 3b 0c 9b 00 3c
       -0.0042293957 -0.0044832597 0.0055671106 0.007849466
0003e0 40 86 a2 39 19 7e 29 b8 8d 67 e6 38 b1 e5 4c b7
       0.00030999072 -4.0410177e-05 0.000109865425 -1.2212827e-05
0003f0 47 b1 d6 39 57 e9 3e 38 f4 75 16 3a 5a da 37 39
       0.00040949343 4.5516845e-05 0.0005739622 0.00017533582

gat_model.1.W.weight f4 [24, 64]
000000 81 df 41 be 24 de f2 3c 94 b2 e8 3e 2f f4 e3 be
       -0.18932916 0.02964694 0.45448744 -0.44522235
000010 5d 81 c7 3e 73 cf e2 be 9b 90 0f 3e ce 2a ab 3e
       0.38965884 -0.44298896 0.14020006 0.33431095
000020 d8 8d 00 3f 1b 55 e5 bd b7 8b 01 bf 0d a4 b4 be
       0.50216436 -0.11197873 -0.5060381 -0.3528141
000030 f0 6b ca be b4 72 0e bf 77 14 0c bf 77 77 e7 3e
       -0.39535475 -0.55643773 -0.54718727 0.45208332
000040 b3 25 f1 be d0 ae 0e 3f 1f fc b9 3e 82 c1 87 bd
       -0.47099075 0.5573549 0.36325166 -0.066287056
000050 98 12 07 3f 84 4a 97 3e ad b6 e9 be 39 5b 87 be
       0.52762747 0.29549038 -0.45647183 -0.26436785
000060 b5 71 f4 be 83 70 75 3e b5 6a 81 be d3 80 d5 3e
       -0.47743002 0.23968701 -0.25276724 0.41699848
000070 d9 f1 94 be f9 95 03 3f ee 42 1d be 1a 84 02 bf
       -0.29090765 0.51400715 -0.15357563 -0.5098282
000080 f7 86 d9 be 0a 40 9f 3e 44 4a 85 3e a3 23 0a bf
       -0.42485783 0.31103545 0.26033223 -0.5396063
000090 47 a7 0f bf db bd 0d bd c1 7a af 3e cd eb fe be
       -0.5611462 -0.03460489 0.3427334 -0.49789277
0000a0 9f 50 ce be f8 ff 09 bf 11 8f f9 bd 0e a7 bd be
       -0.40295884 -0.539062 -0.12185491 -0.37041515
0000b0 2b 4a ba 3e c9 78 b5 3e 0e c4 c7 3e ca 1a 01 bf
       0.3638471 0.35443714 0.39016765 -0.504315
0000c0 31 a1 08 3f 5d f6 b0 3e 86 04 d2 be 5f f3 6c be
       0.5337096 0.3456296 -0.41019076 -0.23139714
0000d0 57 76 97 3e 4d 52 5b 3e 76 af c6 be cf 75 14 bf
       0.29582474 0.21418114 -0.3880574 -0.5799226
0000e0 0d e2 01 bf 54 60 f1 3e 7a cf ed 3e 44 c8 11 bf
       -0.5073555 0.47143805 0.46447355 -0.56946206
0000f0 46 c3 ba be b1 3c 94 be 1f f6 8d 3e d7 af 1e 3f
       -0.36477107 -0.28952554 0.27726838 0.6198706
000100 21 df 06 3f 7d fb fc 3e 57 a7 62 3e b9 6d 1b be
       0.5268422 0.4941062 0.22134148 -0.15178575
000110 4f ba 17 bf 47 51 02 3f 3b 4f 27 bf 47 54 c5 3e
       -0.5926866 0.5090527 -0.6535527 0.3854086
000120 6e 76 18 be a0 4b f3 be 31 a8 e4 3e de 21 b0 be
       -0.14888927 -0.47518635 0.4465957 -0.3440084
000130 ab 1e 11 3f 69 fa ca 3d 05 6c 4a 3d b7 98 a8 be
       0.5668742 0.09911043 0.04941942 -0.32929012
000140 53 6b e1 3e 0b d1 0d bf 1f 40 62 3e ff 34 28 3f
       0.44027194 -0.553971 0.22094773 0.65705866
000150 68 ec ca be bd 7c 3c bf 5d 1c 29 3e ae 3a ac be
       -0.3963349 -0.73627836 0.16514726 -0.3363852
000160 ad ce f3 3e 8c c0 f8 3e 11 db c7 be 3c 39 81 be
       0.4761862 0.48584402 -0.39034322 -0.2523898
000170 05 d4 6a be d7 10 38 be 52 bf 18 3f c2 2c df 3d
       -0.22932442 -0.17975174 0.5966693 0.10897209
000180 a3 a2 9c 3e 9e 0c 27 bf 9e ba e3 3e 3e 8a ad 3e
       0.30592832 -0.6525363 0.44478315 0.33894533
000190 06 80 b9 3e 36 2a 25 3f 9a 5d 5a be b5 08 a5 3e
       0.36230487 0.64517534 -0.21324769 0.32233205
0001a0 09 4d dc be 90 66 1d 3f 98 8f eb be 99 32 08 3f
       -0.43027523 0.6148462 -0.4600799 0.53202206
0001b0 84 6a e1 be 16 e8 20 bf 32 06 e2 be 25 3b 01 3f
       -0.44026577 -0.62854135 -0.44145352 0.5048087
0001c0 29 c9 0f bf 83 c6 28 3e ec 2b 8b be d5 db d3 be
       -0.5616632 0.16481976 -0.27181947 -0.41378656
0001d0 56 ed a7 3e 03 a5 19 bf f7 26 19 3f 43 2d 07 3f
       0.3279826 -0.6001741 0.5982508 0.5280344
0001e0 87 03 c7 3d 6a 23 b7 be f9 c6 f0 bd 0f ef 20 3e
       0.0971747 -0.35769206 -0.11756701 0.15716194
0001f0 96 b5 1c 3f a8 f7 13 bf 94 9f e8 3e d8 43 b7 be
       0.6121458 -0.5779977 0.45434248 -0.35793948
000200 97 70 c1 be e3 8c 12 bf 89 a3 05 bf 68 4f f0 3e
       -0.37781212 -0.57246226 -0.5220266 0.46935582
000210 e7 32 73 3e 9d bd 04 3e 3c 4d 11 3f 49 9b d6 be
       0.23749886 0.12962957 0.56758475 -0.41915348
000220 bc 79 f6 be 66 9a f9 3e c6 f5 a0 3d 54 c5 d0 3e
       -0.4813975 0.4875061 0.078593776 0.4077555
000230 ca 9f d7 be a4 83 d3 3e cc fa 02 3f 47 5d a0 be
       -0.42114097 0.4131137 0.51163936 -0.31321165
000240 ef 84 16 be f1 a3 37 bd 09 c3 f7 be ff 81 19 bf
       -0.14699148 -0.04483408 -0.48390988 -0.59963983
000250 cb de 22 be 38 50 00 3f aa a2 b1 3e 11 69 23 3f
       -0.15905301 0.50122404 0.34694415 0.63832194
000260 6b e8 51 be 1b 14 d9 be 45 3a 0e 3f 7d 29 a4 be
       -0.20498817 -0.42398152 0.5555766 -0.32062903
000270 75 77 0d 3f 69 e2 d1 be 1a 8a 05 bf e7 7d a3 3e
       0.552604 -0.4099305 -0.5216385 0.31931993
000280 4c 33 93 3e ef 08 cd 3e cf ea 25 bf c4 90 3a 3e
       0.28750074 0.40045878 -0.64811414 0.18219286
000290 68 dd 82 3e 57 9e 17 bf 93 70 bf be 6a 5f 90 3e
       0.25559545 -0.5922598 -0.37390575 0.28197795
0002a0 46 8a 04 3f 4c f1 49 be c4 c7 04 3f 91 75 95 be
       0.5177349 -0.19720954 0.5186732 -0.2919126
0002b0 2a 7b c3 3d 4d 17 cd 3e 09 48 90 3d a3 89 14 be
       0.09544976 0.4005684 0.070449896 -0.14505629
0002c0 93 d0 4d 3d 28 f1 da be 5a 90 cc 3e e4 53 11 3f
       0.05024774 -0.42762113 0.39953882 0.5676863
0002d0 44 50 10 bf 7f 43 fd 3e 40 61 6a be 4a 23 e9 3d
       -0.56372476 0.49465558 -0.2288866 0.11383684
0002e0 46 9f 00 3f 43 82 b7 be 9a 17 e1 be 7b d5 fc 3e
       0.5024303 -0.3584157 -0.4396332 0.49381623
0002f0 44 ca a8 be 6d 69 30 3f 3a 4c 18 bf a3 0c 95 be
       -0.32966816 0.68910867 -0.5949131 -0.29111204
000300 b6 4c 30 be f1 4b 94 3d 1e e5 ed 3e 01 f1 f1 be
       -0.17216763 0.07241047 0.46463865 -0.47254184
000310 63 af fc 3e 53 9a 11 bf b2 0b e3 3d 82 85 03 3f
       0.4935256 -0.56876105 0.11086215 0.5137559
000320 ac 2e 1a 3f ea ec fa bd 34 a9 f6 be 0b 26 bc be
       0.60227466 -0.12252219 -0.48175967 -0.36747774
000330 d3 7b c8 be c8 e7 ed be 82 3c e5 be 4d b4 04 3f
       -0.3915697 -0.46465898 -0.44772726 0.5183762
000340 42 aa f1 be 5b f8 b5 3e 35 df ec 3e 86 b1 9b 3b
       -0.4720021 0.35541043 0.46264043 0.004751387
000350 dc ae 0d 3f 81 af 85 3e 3e 58 08 bf 04 72 a0 be
       0.5534494 0.2611046 -0.53259647 -0.31336987
000360 e2 2b c2 be b9 27 83 3e a7 86 a6 be 07 bb 04 3f
       -0.37924105 0.25616243 -0.32524607 0.5184788
000370 3a 66 cb be c4 01 ff 3e 6b 98 46 be 86 38 20 bf
       -0.3972643 0.49806035 -0.1939408 -0.6258625
000380 95 51 18 bf 02 7f 92 3e 1f 98 89 3e 88 b9 e0 be
       -0.59499484 0.28612524 0.26873872 -0.4389155
000390 a9 b5 0e bf 01 b6 0a bd 42 94 0a 3f 33 cc 1e bf
       -0.5574594 -0.03386498 0.54132473 -0.62030333
0003a0 a7 8f bf be 3a ec c5 be c6 71 04 be ed 52 e8 be
       -0.37414286 -0.3865679 -0.12934026 -0.45375767
0003b0 ae 08 dd 3e 1e 25 db 3e 9f 5d d6 3e 01 2c fc be
       0.43170685 0.42801756 0.41868302 -0.49252322
0003c0 a5 2f 01 3f 2c 17 a6 3e bb 51 e1 be dd da a1 be
       0.50463325 0.32439554 -0.44007668 -0.31612292
0003d0 b0 c8 81 3e be ff 9c 3e 55 71 b7 be ea 14 e2 be
       0.25348425 0.30663866 -0.35828653 -0.4415658
0003e0 b6 a1 e2 be 81 c0 28 3f 27 5c f3 3e ec eb b8 be
       -0.44264 0.6591874 0.47531244 -0.36117494
0003f0 7d 5d 9c be 98 40 87 be ce fb af 3e 16 c5 11 3f
       -0.30540076 -0.2641647 0.343718 0.56941354

gat_model.1.a.weight f4 [8, 48]
000000 74 d5 1a bc 2b 9f 8d 3a 4b d2 df 3b a9 4e 17 ba
       -0.009450305 0.0010804882 0.006830489 -0.0005771914
000010 d5 43 56 ba 0e e2 96 38 52 de 71 bc d0 0a c6 3a
       -0.000817356 7.194663e-05 -0.014762478 0.0015109424
000020 95 e9 f5 3b ad 18 03 ba d1 16 27 3a d2 92 e0 39
       0.007504652 -0.00050009304 0.00063739443 0.00042834
000030 8a 78 45 bc e0 17 6d 3a a6 fb 0b 3c 5f ca 9b b9
       -0.0120526645 0.000904439 0.008543884 -0.00029714682
000040 70 af fb 39 06 ab 01 ba 0a f8 2a bc c3 1e cc 39
       0.00048005162 -0.0004946444 -0.010435114 0.0003893283
000050 ab 19 38 3c 0d a5 39 ba 15 2e 03 bb 82 ab 41 b8
       0.0112365885 -0.00070817844 -0.002001648 -4.6174515e-05
000060 19 f3 25 bc 61 ae 1d 3b 00 f3 00 3c c4 9d c6 39
       -0.01012876 0.0024060237 0.007870436 0.00037883047
000070 e4 4f e7 39 84 b4 da 39 2e 95 4e bc 63 fe 24 3a
       0.00044119277 0.00041714695 -0.012608809 0.000629401
000080 da 75 17 3c 9e c0 bb 38 81 ba c9 b9 0c a7 49 3a
       0.009244407 8.9527326e-05 -0.00038476664 0.00076924334
000090 63 17 75 bc 7c 02 c8 39 ef ce 00 3c 27 5d f3 37
       -0.014959189 0.00038148824 0.007861837 2.9011235e-05
0000a0 9d e1 c0 ba c0 3d 16 ba 0d 46 6e bc fc f8 5b ba
       -0.0014715675 -0.00057312474 -0.014543069 -0.00083912886
0000b0 cc 04 81 3c 0f a4 9e 3a 27 7d cf 39 7b 8d 6b 35
       0.015749358 0.0012103337 0.00039575362 8.7750203e-07
0000c0 90 d3 6a bb 65 96 48 3a 60 34 b9 3b eb 21 4d 3a
       -0.0035831667 0.0007651805 0.0056519955 0.00078251836
0000d0 14 93 1a 3a 0a f8 82 3a cd f3 7f bb 51 ab 6c bb
       0.000589655 0.0009992134 -0.0039055229 -0.0036112855
0000e0 33 f1 32 3b 24 ff c4 b9 dc 0a 64 3a 82 a3 81 3a
       0.002730441 -0.00037574128 0.0008699128 0.0009890648
0000f0 74 4f 02 bc a5 b4 9f bb 25 fc 81 3b 55 54 8f 3a
       -0.007953513 -0.0048738294 0.0039668255 0.0010935167
000100 89 8e 86 36 e1 53 a0 ba a7 31 f7 ba 2a a0 db 3b
       4.0101045e-06 -0.0012232029 -0.0018859402 0.0067024427
000110 7b 8d 13 3b 33 1e 01 3a 87 d7 05 3b af e7 8e 3a
       0.002251475 0.00049254595 0.0020422654 0.0010902787
000120 28 df b9 bb 56 10 86 3c 75 ba 4f 3b 85 88 ff 3a
       -0.0056723543 0.016365211 0.003169683 0.0019495642
000130 d1 01 e9 b9 70 53 6f b9 e1 4a cd bb 87 34 61 3a
       -0.00044442576 -0.00022823899 -0.00626503 0.0008590896
000140 d7 b6 6b 3b de 0d ec 39 09 8e bf 3a c0 f2 9e ba
       0.0035967135 0.0004502376 0.0014614473 -0.0012126788
000150 02 e5 8f bb 69 0b 42 3c 95 1a 1e 3b fe 0d 3f ba
       -0.0043913135 0.011843541 0.002412473 -0.0007288157
000160 b8 26 f1 3a 9c 91 04 3b c2 31 48 bc d7 6a aa bb
       0.001839838 0.0020228392 -0.012218894 -0.0052007246
000170 b2 e9 ea 3a a1 1c b3 39 6c 9c 5a b9 b1 98 85 ba
       0.001792243 0.0003416287 -0.00020848372 -0.00101926
000180 4c 2d 6f 3b 72 ee ef bb 56 c1 82 3b 0d 3c 52 ba
       0.0036495505 -0.007322126 0.0039903326 -0.00080198125
000190 8d 4c ba ba 57 00 c2 37 4d 5e 71 3b be b7 14 bc
       -0.0014213488 2.312676e-05 0.003682989 -0.009077011
0001a0 d4 d2 a3 ba 06 ec b1 b9 07 b0 cc b7 47 00 06 3b
       -0.0012498745 -0.00033935922 -2.4400664e-05 0.0020446943
0001b0 e9 d9 d1 ba 7e 20 c0 bb e2 5c ae 3a c9 40 82 b9
       -0.0016010377 -0.0058632484 0.0013302828 -0.000248438
0001c0 2f b6 d2 ba 46 5e 0b ba 6b b8 7a 3b 14 cc 4d ba
       -0.0016076023 -0.0005316477 0.0038256894 -0.00078505394
0001d0 76 83 a7 3b 05 84 d2 ba e0 bc c6 b8 69 c8 92 3a
       0.005112107 -0.0016061073 -9.4765564e-05 0.0011198643
0001e0 b3 d2 a8 3b fe e1 e5 bb 9d b8 16 b9 f3 fb f8 39
       0.0051520704 -0.0070154658 -0.00014373889 0.00047489963
0001f0 55 fa 90 ba b9 bb 30 38 d6 e2 ca 3b 25 a7 b4 bb
       -0.0011060933 4.21365e-05 0.0061915917 -0.0055130892
000200 a8 3d cf 39 c2 6d 7a b9 85 bb b2 39 e6 c1 cf 39
       0.00039528054 -0.00023882746 0.0003409052 0.00039626582
000210 a9 b6 14 ba 71 7c 31 bc 3c fc 92 3b f4 8b 8f 3a
       -0.00056729704 -0.010832892 0.004485635 0.0010951743
000220 b0 fc 95 ba 8e b3 ea 38 f8 58 a7 3b 8c bb 37 bb
       -0.0011443105 0.00011191434 0.0051070414 -0.002803537
000230 fd 04 b0 b9 9b eb 20 39 29 cc 89 ba 13 83 3c b8
       -0.00033573052 0.00015346559 -0.0010513115 -4.4944765e-05
000240 c2 24 1b bc 9e 8f b1 bb 69 51 d0 3b 39 05 de ba
       -0.009469213 -0.005418732 0.006357361 -0.0016938812
000250 6f 42 c2 b9 79 fe 0a b9 7c b0 0c bc d2 d6 3d bc
       -0.0003705206 -0.00013255504 -0.008586999 -0.011586862
000260 31 0a 7f 3c 7d c5 5a 3a 2b 45 91 ba 2f eb 9e ba
       0.015566395 0.0008345468 -0.0011083236 -0.0012124534
000270 59 52 b9 3b 1d 0d 94 bc 37 31 43 3c b9 13 3b ba
       0.0056555686 -0.01807266 0.011913589 -0.0007136423
000280 d0 37 b9 b8 3c 15 ee 38 17 7e 02 bc 0c 72 16 bc
       -8.831883e-05 0.000113526796 -0.0079646325 -0.009182464
000290 41 9e 9f 3c a6 d8 94 ba 77 63 23 39 9a c8 03 3b
       0.019484641 -0.001135607 0.00015581945 0.0020108582
0002a0 cc 2b c6 3b 7a 5c 93 bc 4a 44 be 3c 0b e9 c3 39
       0.0060477015 -0.017988432 0.023225922 0.0003736693
0002b0 ee c8 09 b9 17 96 94 ba c7 de 67 3b 88 c2 e5 bb
       -0.0001314019 -0.0011336234 0.0035380588 -0.0070117153
0002c0 c2 70 8f 3c 38 01 36 39 0c dc d8 b9 61 c7 d3 b9
       0.017509822 0.00017357327 -0.00041362678 -0.00040393605
0002d0 cb fc 13 bc 9d 27 9e bc 22 85 e5 3b ca 15 02 b9
       -0.0090324385 -0.019305998 0.007004396 -0.00012405883
0002e0 00 64 82 3a 1f 48 16 b9 6d 7b dc bb 7e 5e 73 bb
       0.0009948015 -0.00014331982 -0.0067285807 -0.003713518
0002f0 fe 2f 69 3c a6 35 fe 38 a5 41 59 b9 5f 53 2a b7
       0.014232634 0.000121216566 -0.00020719187 -1.0152201e-05
000300 c0 c0 57 3c 50 e2 dc b9 62 a8 0b bc da 82 8c b7
       0.013168514 -0.00042130286 -0.008524032 -1.6750233e-05
000310 93 8a 00 3b 5d 8a 0b 39 b2 4f 45 3c 70 75 7d 3b
       0.0019613847 0.00013307617 0.012042927 0.0038674735
000320 a6 f7 6f bc 95 2f 74 3a 58 6e d3 ba 77 c1 4b ba
       -0.014646446 0.00093149516 -0.0016130907 -0.0007772664
000330 82 7a 11 3c 58 35 17 3b 36 5c 15 bc b8 a0 3e ba
       0.008879306 0.0023072567 -0.009116223 -0.0007271874
000340 72 bc d5 39 05 91 0c b8 f7 92 17 3c 74 28 09 3b
       0.0004076693 -3.351366e-05 0.009251348 0.0020928653
000350 f3 a5 7e bc ff cd 9c 3a ae cf 27 b9 f6 2d ef b7
       -0.015542495 0.0011963247 -0.00016003728 -2.8512422e-05
000360 5a c5 93 3c f4 26 e9 39 e0 71 d4 bb 95 7f 50 ba
       0.01803844 0.00044470245 -0.0064833015 -0.00079535815
000370 85 51 38 3a ab ce 02 3b fd cf 39 3c f7 21 d4 ba
       0.00070311903 0.001995961 0.011341092 -0.0016184439
000380 2e e7 89 bc d0 65 8c 3a 7f 2c 37 3a 06 28 d0 38
       -0.016833868 0.0010711495 0.00069875264 9.925668e-05
000390 15 91 66 3c b7 f9 35 3a 10 bb 12 bc 7f a6 22 37
       0.014072676 0.00069418125 -0.008955732 9.694718e-06
0003a0 57 27 b5 39 9f 80 ad 3a a5 b9 1d 3c 39 40 48 ba
       0.0003455232 0.0013237185 0.009626781 -0.00076389645
0003b0 32 82 22 bc d4 e1 b6 b9 cf 05 61 b9 d5 e4 fa b7
       -0.009918736 -0.00034882 -0.00021459836 -2.990888e-05
0003c0 cf d2 0b 3c 92 91 a6 bc 4e 8c 3f 3c d5 7e 13 39
       0.008534147 -0.020333085 0.011691166 0.00014066261
0003d0 6b 7a 03 ba 0b 62 4c ba 2f b7 ae 3b 7f ff 99 bc
       -0.0005015495 -0.0007796592 0.005331896 -0.018798588
0003e0 4a ac cd 3a ba 05 e1 39 fd a2 18 ba 49 b9 58 39
       0.0015691605 0.0004291961 -0.0005822627 0.0002066839
0003f0 0d 7f 2a 3c 1c 2d 90 bc cb 46 f1 3b 63 55 14 37
       0.010406268 -0.017599635 0.0073631755 8.841368e-06

exp_avg f4 [64, 500]
000000 3b 59 ed 38 4d cf 85 38 eb cd 2a 38 1c d8 02 38
       0.00011317661 6.380547e-05 4.0722935e-05 3.1195683e-05
000010 af 33 f1 b7 3b c6 92 b7 b8 a8 45 b7 39 fb 95 37
       -2.8753506e-05 -1.7496865e-05 -1.1781398e-05 1.7879169e-05
000020 1d 06 23 b7 cc 72 ae b8 b6 d8 e6 b6 93 10 1e 38
       -9.7169805e-06 -8.318349e-05 -6.8797626e-06 3.768557e-05
000030 3e 1c 62 37 54 82 a8 b8 19 f5 0e b8 45 b7 8a 38
       1.3477225e-05 -8.03514e-05 -3.4083703e-05 6.6144894e-05
000040 fa 7f ba b8 95 9e 0e 39 cc 4f 24 b6 f3 ee 95 b7
       -8.8930086e-05 0.00013601252 -2.4484352e-06 -1.7873454e-05
000050 c5 b8 41 38 a6 73 27 b8 80 da 91 38 e3 6c 28 b8
       4.6186866e-05 -3.992361e-05 6.9548376e-05 -4.015573e-05
000060 b6 18 9a b9 c6 96 74 b8 e0 91 7f 38 98 90 90 36
       -0.0002939158 -5.8314552e-05 6.0932594e-05 4.3083674e-06
000070 f4 f7 de 37 03 29 8a 38 44 3d 3d b8 fe 2b 27 37
       2.6579924e-05 6.587992e-05 -4.511817e-05 9.964218e-06
000080 15 af 3d b7 80 46 c3 37 05 58 fe b6 25 32 7b 38
       -1.1306042e-05 2.327864e-05 -7.5800367e-06 5.9889764e-05
000090 4c db f3 38 ea ec 15 38 a9 f9 1f b8 a3 14 1d b8
       0.0001162799 3.574501e-05 -3.814107e-05 -3.7450936e-05
0000a0 40 a4 88 38 56 6d 5d b8 3b c9 06 b7 aa 5d 80 37
       6.515579e-05 -5.2792333e-05 -8.033875e-06 1.5302405e-05
0000b0 f4 0d 02 38 a9 22 2b b7 93 66 08 38 b6 0e 12 b8
       3.100741e-05 -1.0200464e-05 3.2520456e-05 -3.4822813e-05
0000c0 2c 61 1c 37 bc 39 3a 37 e7 2d 9f 37 55 54 85 b8
       9.320949e-06 1.1099906e-05 1.8975652e-05 -6.357642e-05
0000d0 69 47 88 b8 f8 91 3b b8 f5 fd d9 38 1e 0a fc b6
       -6.4982865e-05 -4.472022e-05 0.000103946695 -7.511363e-06
0000e0 fb d8 be 38 e2 7e df b7 db d9 09 b8 42 76 58 38
       9.100322e-05 -2.6642756e-05 -3.286624e-05 5.160855e-05
0000f0 c3 1e 1e 38 62 c1 55 b8 ca db ba b8 18 4a dd b7
       3.7698785e-05 -5.096326e-05 -8.91011e-05 -2.6379756e-05
000100 99 c8 cd b8 3d b8 75 38 7e 25 a4 b7 e1 07 05 39
       -9.812526e-05 5.8584137e-05 -1.9567782e-05 0.00012686804
000110 53 28 08 38 f5 26 96 38 60 f3 8e 35 1e 8c 00 38
       3.246248e-05 7.159814e-05 1.0650656e-06 3.0648072e-05
000120 31 f4 cb b8 4a 86 84 36 f8 0c 00 b8 83 e1 2b 36
       -9.7252785e-05 3.94954e-06 -3.0529656e-05 2.561225e-06
000130 5f 62 eb b6 ac 37 f2 b7 61 2f 0f b9 91 2d 68 b7
       -7.0149977e-06 -2.8874572e-05 -0.00013655193 -1.3838887e-05
000140 57 75 40 38 bd aa 1f b8 c3 49 27 38 cd 8c 05 38
       4.588565e-05 -3.8067566e-05 3.98846e-05 3.1840802e-05
000150 75 8a 5c 38 f0 02 fe 37 98 ef 36 37 ec ca 9e 35
       5.2581036e-05 3.0280527e-05 1.090383e-05 1.1830975e-06
000160 84 81 06 b8 8f 93 52 39 79 2c 1d b9 10 e7 3d 38
       -3.206871e-05 0.0002008213 -0.00014989254 4.5276305e-05
000170 b6 fc d1 b6 51 8b 1a b6 76 47 8e b8 bc 99 a2 37
       -6.258105e-06 -2.302888e-06 -6.784398e-05 1.9383493e-05
000180 48 ed 93 b6 0f 99 55 38 d2 7a 11 b7 7f 85 26 b8
       -4.4085646e-06 5.0925704e-05 -8.67127e-06 -3.9701812e-05
000190 5d fd d3 38 c7 91 bc b8 a3 43 16 b8 58 54 ad b8
       0.000101084566 -8.991692e-05 -3.582578e-05 -8.264993e-05
0001a0 64 e6 dc b7 b0 66 8d b8 e2 e9 40 b6 d4 30 41 b7
       -2.6333328e-05 -6.742531e-05 -2.8746367e-06 -1.1515065e-05
0001b0 b1 ee a3 38 76 f1 e4 b7 b5 6d a7 b5 bf 02 8a 38
       7.8169054e-05 -2.7292157e-05 -1.2474399e-06 6.580864e-05
0001c0 de 50 97 b7 33 6c f0 37 b3 54 62 b7 4c ea 3f b7
       -1.803826e-05 2.8660614e-05 -1.349037e-05 -1.1439039e-05
0001d0 be 56 2f 38 94 92 40 38 50 9e e0 b6 b3 0e 17 b9
       4.1804036e-05 4.591288e-05 -6.69415e-06 -0.00014405958
0001e0 4f 64 0e 38 b6 33 bc 38 b8 c4 0f 39 77 99 b9 b8
       3.3948858e-05 8.9741705e-05 0.00013710826 -8.8500725e-05
0001f0 c7 0b 66 b4 3b de a4 b8 e6 66 8d b8 0f 58 40 37
       -2.1424704e-07 -7.861523e-05 -6.74257e-05 1.14645945e-05
000200 fa 91 34 b8 31 9e e3 37 55 39 27 38 03 52 46 b8
       -4.3051296e-05 2.7134172e-05 3.9869297e-05 -4.7283258e-05
000210 14 39 91 39 cd 04 c5 38 8a fa 9f 37 e8 84 43 b8
       0.00027699082 9.394586e-05 1.9070943e-05 -4.66154e-05
000220 fb 7f d1 37 ef 24 45 b8 c6 60 a4 37 17 d8 1a b7
       2.4974337e-05 -4.7002857e-05 1.9595387e-05 -9.229428e-06
000230 14 f8 b3 37 51 cd 59 36 e7 ed 3f b8 e2 52 81 37
       2.1453983e-05 3.245503e-06 -4.5759512e-05 1.5416594e-05
000240 18 6d cc b7 e0 24 86 b7 d5 d6 0a 38 5a 49 10 b9
       -2.4369496e-05 -1.5991216e-05 3.3101842e-05 -0.00013760236
000250 ce 0d 4b b9 51 3f 0d b7 20 73 80 36 0c a4 a9 37
       -0.00019364731 -8.418997e-06 3.8280996e-06 2.022276e-05
000260 4e 33 53 38 35 ef 22 b7 b4 42 d7 b5 9b a3 a3 b8
       5.03541e-05 -9.711647e-06 -1.6038161e-06 -7.8029196e-05
000270 e2 c7 1b 38 7f 8f c2 36 fa 1c 3b b8 b9 80 83 b7
       3.7141035e-05 5.7983557e-06 -4.461126e-05 -1.5676358e-05
000280 18 66 56 b9 ec 1b 77 36 55 2e 19 b9 4e b8 e5 b7
       -0.00020446663 3.682212e-06 -0.00014608477 -2.738475e-05
000290 36 18 8c 37 fe 48 e3 b7 06 7f a1 38 27 e7 6d b8
       1.6700575e-05 -2.7094498e-05 7.700738e-05 -5.672048e-05
0002a0 ad e8 b5 37 e5 46 65 38 b7 1b d5 36 15 77 78 38
       2.168523e-05 5.466388e-05 6.351121e-06 5.923871e-05
0002b0 2a c1 01 38 16 35 3f 36 b3 42 bc b8 b4 eb 14 b9
       3.0935895e-05 2.8492118e-06 -8.976962e-05 -0.00014202186
0002c0 b5 81 6a b8 4a 05 07 b9 bf d9 b8 38 28 5d 6a b7
       -5.5910747e-05 -0.00012876574 8.814362e-05 -1.39691765e-05
0002d0 e9 9f 8b b7 ab e0 ba 38 59 8b f3 b7 03 23 2e b8
       -1.6644555e-05 8.911019e-05 -2.9032746e-05 -4.151744e-05
0002e0 48 fb 5f b8 84 22 f3 b5 7b b0 a8 37 70 d9 2a 38
       -5.3401367e-05 -1.8114956e-06 2.010934e-05 4.0733663e-05
0002f0 b5 2e 27 38 e1 8c 89 37 1d ba c2 38 35 49 88 38
       3.9859402e-05 1.6397275e-05 9.285307e-05 6.498621e-05
000300 5f c2 7c 38 36 09 95 b7 e6 bd fb 37 48 02 42 37
       6.0262504e-05 -1.7766473e-05 3.000996e-05 1.1563832e-05
000310 f5 7f e4 38 77 3c 57 b6 32 4c b6 36 49 2c 6b 38
       0.00010895721 -3.2072692e-06 5.432893e-06 5.606961e-05
000320 41 d8 ec b6 39 d5 67 38 a5 52 0f 37 98 45 09 38
       -7.0585234e-06 5.527327e-05 8.542706e-06 3.272816e-05
000330 b6 54 52 b8 33 e6 ab 38 ed 1b 26 38 60 78 f2 37
       -5.0146795e-05 8.196793e-05 3.9603492e-05 2.8904702e-05
000340 bf c3 10 b8 fc 56 63 b8 c4 c9 cd 36 e7 5b a9 38
       -3.4514578e-05 -5.4202028e-05 6.1329647e-06 8.075666e-05
000350 14 7a 6e 38 ce 32 25 39 a4 42 82 37 15 e4 ae 38
       5.6857316e-05 0.00015754552 1.552824e-05 8.33945e-05
000360 8f 6e b0 37 5a ba 02 39 4d d8 ae b7 7e 5e 75 38
       2.1032318e-05 0.00012467187 -2.084314e-05 5.8500555e-05
000370 17 df 3c 37 c4 0d 32 b9 0b 17 b7 36 cf ba a7 37
       1.1257615e-05 -0.00016980531 5.4565076e-06 1.999494e-05
000380 35 87 3e 38 27 9a c7 37 9c 1e 74 38 d2 ef 10 38
       4.542545e-05 2.3794431e-05 5.820264e-05 3.4555625e-05
000390 11 d4 31 38 21 dd 6b 38 c9 82 ab b9 f1 07 bf 38
       4.239759e-05 5.623431e-05 -0.00032713104 9.109069e-05
0003a0 2d 0d a1 38 f5 4c 21 ba d4 58 14 b9 5f ba 05 37
       7.6795324e-05 -0.000615313 -0.00014147471 7.970811e-06
0003b0 6f 75 44 b8 21 e4 16 38 d3 04 8c 37 44 72 8f b9
       -4.683941e-05 3.597525e-05 1.6691547e-05 -0.0002736022
0003c0 81 9e dd 37 f5 76 fb b8 72 ed 79 36 b3 1a e7 36
       2.6419062e-05 -0.0001199077 3.7242103e-06 6.8874447e-06
0003d0 42 68 43 b7 21 84 55 37 93 55 04 37 f0 a3 25 39
       -1.164718e-05 1.2726553e-05 7.887737e-06 0.00015796698
0003e0 e9 40 9c 37 f3 a7 82 38 aa 3e 93 38 a0 58 97 b7
       1.8626875e-05 6.230166e-05 7.021178e-05 -1.8041872e-05
0003f0 e3 8d 8c 38 ef 5d 96 38 b5 22 91 38 68 ec 93 b5
       6.702149e-05 7.170054e-05 6.9206035e-05 -1.1021157e-06

exp_avg_sq f4 [64, 500]
000000 42 20 30 32 2f 48 86 31 01 95 f7 31 7d 97 3a 31
       1.0251883e-08 3.9081196e-09 7.205586e-09 2.7152673e-09
000010 0a 47 3d 30 d4 37 f2 31 60 a0 88 30 ac fc 23 31
       6.885875e-10 7.049474e-09 9.940884e-10 2.386325e-09
000020 ce ba f6 31 4a d7 99 31 8a 11 9b 31 f8 2f 67 31
       7.1807795e-09 4.4773616e-09 4.5130877e-09 3.3642191e-09
000030 40 c9 16 31 93 44 d4 31 70 e7 c3 30 96 12 1d 32
       2.194227e-09 6.177808e-09 1.4253896e-09 9.142829e-09
000040 51 46 ab 31 0c 3a 42 32 4d 94 3a 31 72 be 20 31
       4.984749e-09 1.13054845e-08 2.7150862e-09 2.339132e-09
000050 2d 18 29 31 ae 2c de 30 a3 90 34 32 c2 90 ed 30
       2.460648e-09 1.6165325e-09 1.05102655e-08 1.7285162e-09
000060 c8 49 f9 32 59 7b 03 32 7e a9 b5 31 db 1b 08 31
       2.9020967e-08 7.65325e-09 5.2870623e-09 1.9806439e-09
000070 2f 3d 7e 31 db 28 28 32 14 4d b2 31 ff b4 64 31
       3.6996644e-09 9.7881765e-09 5.1892446e-09 3.328125e-09
000080 8d e4 22 32 c6 4b 95 31 20 d3 72 31 db d8 6c 32
       9.4816075e-09 4.345085e-09 3.5335646e-09 1.3786315e-08
000090 1a 22 ec 31 91 3b e2 30 1a 4e 93 31 bc 06 a3 32
       6.872381e-09 1.6460594e-09 4.287142e-09 1.897876e-08
0000a0 aa 25 d3 30 35 00 0a 31 dc 12 25 31 a3 ca 21 31
       1.5362975e-09 2.008176e-09 2.402138e-09 2.354377e-09
0000b0 e8 2e de 30 09 fe 83 30 33 49 50 31 d0 48 e5 30
       1.6165957e-09 9.603706e-10 3.0309593e-09 1.6682637e-09
0000c0 a2 c3 c7 30 29 60 49 32 8c 00 42 31 63 21 6b 31
       1.4534758e-09 1.1721604e-08 2.8231026e-09 3.421598e-09
0000d0 08 e9 21 32 27 72 ff 31 ae d9 37 32 93 4a a7 31
       9.424419e-09 7.4344544e-09 1.0701497e-08 4.868818e-09
0000e0 74 e5 ba 31 28 8e 2e 31 05 45 0a 31 65 c3 55 31
       5.4393983e-09 2.540114e-09 2.0120876e-09 3.1106648e-09
0000f0 94 5a 16 31 ab dc 03 31 70 48 d4 31 1f a5 76 30
       2.187936e-09 1.9188444e-09 6.1782472e-09 8.972893e-10
000100 97 33 bb 31 fc 67 d4 31 6c 0d 3f 30 b1 a2 4e 32
       5.4482814e-09 6.1818337e-09 6.950447e-10 1.202777e-08
000110 cc 0d ed 31 92 76 92 31 0f 22 ae 31 1d cf a5 31
       6.8991763e-09 4.262639e-09 5.0679385e-09 4.825678e-09
000120 6c 13 bd 31 d8 1c d1 31 2e 68 98 30 a2 27 c3 30
       5.502832e-09 6.0859797e-09 1.1089065e-09 1.4199382e-09
000130 c7 3b 3d 31 60 b0 d3 30 d4 41 ae 31 87 4d cf 30
       2.75371e-09 1.5402399e-09 5.0715503e-09 1.5083267e-09
000140 94 f3 c5 30 65 0b f9 30 35 a1 5a 31 31 61 84 31
       1.4402866e-09 1.8120373e-09 3.181481e-09 3.852755e-09
000150 e6 68 8d 31 01 65 a1 31 a7 63 e4 31 e3 e5 07 31
       4.1155657e-09 4.6971995e-09 6.6470025e-09 1.977576e-09
000160 bd 49 86 30 ac 12 b4 32 2d 5b b6 31 b8 03 97 32
       9.770741e-10 2.0963249e-08 5.3072626e-09 1.7580405e-08
000170 82 8d cd 32 34 67 17 31 9d 86 b8 31 6a a0 cd 31
       2.3929491e-08 2.2032056e-09 5.3704086e-09 5.984522e-09
000180 8a 96 fa 30 aa 6c dc 30 8f 5f 53 31 d2 04 02 30
       1.823268e-09 1.6037991e-09 3.075886e-09 4.7300575e-10
000190 ef 01 25 32 8e 4c 9a 31 3b 6a 22 32 48 42 78 31
       9.604704e-09 4.490693e-09 9.453795e-09 3.6126426e-09
0001a0 d5 a0 df 31 42 55 00 31 24 5c a8 31 eb c5 02 31
       6.5084387e-09 1.8674915e-09 4.8999187e-09 1.9029993e-09
0001b0 b2 fa 87 31 b4 4b e9 30 c6 1a c3 32 70 96 ca 31
       3.957518e-09 1.6974497e-09 2.2713163e-08 5.8960765e-09
0001c0 08 94 f8 30 19 c2 1d 31 f8 82 f7 31 35 d8 b5 31
       1.8086448e-09 2.2956839e-09 7.2035355e-09 5.292373e-09
0001d0 66 9d 96 31 b9 27 05 31 62 be 7a 30 98 4a 6e 32
       4.3834687e-09 1.9376627e-09 9.122002e-10 1.3870384e-08
0001e0 50 fd 0e 31 73 c5 a5 31 4c 22 7e 32 e0 41 bd 32
       2.080771e-09 4.8245794e-09 1.4792544e-08 2.2032452e-08
0001f0 3a 24 48 30 cb 85 0a 32 d7 31 47 32 8c 57 b7 32
       7.2811057e-10 8.063078e-09 1.1594657e-08 2.1343816e-08
000200 73 c4 98 31 8c 8c 33 31 b2 b7 97 31 e3 f1 2d 31
       4.446116e-09 2.612782e-09 4.415562e-09 2.531231e-09
000210 b3 bb 36 32 0f 60 8b 31 33 d0 33 30 47 0f 13 32
       1.0636472e-08 4.056353e-09 6.541569e-10 8.56e-09
000220 f2 be b9 30 a9 6a cd 30 f7 a2 1c 32 58 a0 d1 31
       1.3514792e-09 1.4946028e-09 9.117449e-09 6.1009295e-09
000230 ad 3e 01 31 4c 17 0b 31 16 22 34 31 5f e6 27 30
       1.8807598e-09 2.0240405e-09 2.6212823e-09 6.1081623e-10
000240 05 4f 4a 31 97 75 5a 30 bc 59 8f 32 9f 3d e1 31
       2.9439786e-09 7.9475043e-10 1.6688197e-08 6.5553674e-09
000250 67 1b d0 31 76 35 84 32 bc 4e 43 31 ad e7 c0 30
       6.056712e-09 1.5391134e-08 2.842099e-09 1.4035685e-09
000260 5e f8 ae 30 f3 79 ba 30 e4 c8 1b 31 6b 96 bc 31
       1.2730756e-09 1.3567941e-09 2.2669662e-09 5.4886207e-09
000270 e7 50 06 31 12 a7 b8 31 a7 a2 8e 31 f9 a5 82 31
       1.9545554e-09 5.3740985e-09 4.1512354e-09 3.802367e-09
000280 7a 3b 16 32 4b c2 f8 30 ad f0 0c 33 79 dc 1c 31
       8.7446725e-09 1.8099596e-09 3.2815183e-08 2.2826312e-09
000290 b9 e5 26 32 1f d4 40 31 70 9f de 31 09 d7 66 30
       9.714705e-09 2.8060254e-09 6.4791763e-09 8.3979096e-10
0002a0 d0 3a d8 30 65 49 f3 31 9d 17 c9 30 10 5f 2c 32
       1.5732784e-09 7.080575e-09 1.4631386e-09 1.0033332e-08
0002b0 a8 29 e1 30 71 b0 85 30 be 38 1a 31 42 3f 4d 32
       1.6382744e-09 9.727171e-10 2.2442204e-09 1.1946954e-08
0002c0 e0 57 63 31 34 ce e0 32 7b 44 ae 31 6f ce 4a 30
       3.3082799e-09 2.6170802e-08 5.071852e-09 7.378053e-10
0002d0 29 46 84 31 01 32 15 31 c4 91 a6 30 5c be 97 30
       3.849682e-09 2.1710778e-09 1.2119519e-09 1.1040799e-09
0002e0 af 0e ea 30 47 60 36 30 ea c3 1b 30 c5 c8 4a 31
       1.7029914e-09 6.634803e-10 5.666708e-10 2.9508993e-09
0002f0 d7 ef 1e 31 db 5a 84 31 87 cf 01 32 12 a7 33 32
       2.312836e-09 3.8520347e-09 7.5559745e-09 1.0457159e-08
000300 ac 8c cb 31 ec 82 47 30 23 35 49 30 1c 93 5d 31
       5.92407e-09 7.258183e-10 7.3198886e-10 3.2243355e-09
000310 a7 1b 49 32 14 cc e0 30 da f7 63 30 7f e1 3f 31
       1.1706027e-08 1.6356148e-09 8.2934337e-10 2.7922338e-09
000320 64 2a d7 30 a4 9b dd 31 e7 68 61 32 2e 92 91 32
       1.5655357e-09 6.449641e-09 1.3120576e-08 1.6946696e-08
000330 8c 46 7a 31 de b0 9d 32 59 42 5d 31 d4 62 02 32
       3.641989e-09 1.8357635e-08 3.2197447e-09 7.589467e-09
000340 8f 4c ed 30 33 c6 e3 30 e5 0a 2f 31 72 4e e9 31
       1.7265779e-09 1.6572755e-09 2.5472044e-09 6.7901107e-09
000350 a3 32 9c 32 2f e6 1f 33 7e 50 5d 31 ae 60 97 31
       1.8183817e-08 3.7229423e-08 3.2205487e-09 4.4056696e-09
000360 fc a5 91 31 f1 da 11 32 cb d6 b1 31 64 18 10 32
       4.2389257e-09 8.489892e-09 5.175797e-09 8.387449e-09
000370 33 a5 9a 30 0c 75 23 33 36 49 6c 31 e4 bc 97 30
       1.1251927e-09 3.805785e-08 3.4384136e-09 1.1040382e-09
000380 94 90 bb 31 d4 b8 49 31 9d 96 db 31 39 0d 1c 31
       5.458853e-09 2.9354412e-09 6.3908616e-09 2.2708504e-09
000390 96 fb fa 31 c1 9b ad 31 71 76 58 32 46 dc 90 32
       7.3045596e-09 5.05267e-09 1.2599785e-08 1.6863975e-08
0003a0 ca 8d b7 31 de 38 b2 33 ab 1f ff 31 82 4f e3 31
       5.3421205e-09 8.299115e-08 7.425077e-09 6.6156085e-09
0003b0 54 c3 8b 31 be 05 3f 32 21 c2 74 31 4f 63 2a 32
       4.0676387e-09 1.1118969e-08 3.5617023e-09 9.9178825e-09
0003c0 1b d0 d2 31 6c 44 89 31 a8 6c 67 2f af 89 78 30
       6.1354632e-09 3.9950034e-09 2.104793e-10 9.0417535e-10
0003d0 2f 7f a1 31 20 eb 9f 30 66 a3 04 31 30 51 4a 32
       4.700176e-09 1.1635599e-09 1.930141e-09 1.1776407e-08
0003e0 ab af a8 31 7d a0 2e 31 2a 0b 8b 31 f1 46 dd 31
       4.9094147e-09 2.541156e-09 4.0467016e-09 6.4400116e-09
0003f0 d2 32 53 31 bb 68 81 32 a8 c9 0c 32 56 2a 26 30
       3.073343e-09 1.5065202e-08 8.194924e-09 6.045061e-10
