checkpoints/Pubmed-100epochs.ckpt (torch, 425083 bytes, 12 tensors)

gat_layer_list.0.W.weight f4 [64, 500]
00000000: de89 fabe 8cd5 033d 748f 813d 2650 ac3c
00000010: 49ef 55bd 51e7 e53d 351c 12be 116d 9bba
00000020: 516b 22be 989b 5e3b 761f 893b 028b 16bd
00000030: a027 d0bc a2ab d53b a2cb 05bd c60c 3abe
00000040: 46cd 263c ad83 df3d 3143 6a3d 00fb 28b8
00000050: 0fae a63d 9a69 f3bc b7fc 44bd ce86 c63b
00000060: c8cb 0b3c 77a0 07be 52dc e2bd 3a9c 8a3c
00000070: 2f9c a53b 49c0 b4bd 04a7 05be 2802 7ebe
00000080: 3e87 3ebe dd22 98bd 0bde 63bd 2eb9 08bc
00000090: 38f4 07ba 1aef 6e3c 1f8d 1cbe 3b85 453e
000000a0: dd21 3abe 209b 983c a1e6 9fbd bee7 45bc
000000b0: 0762 c63c d6c2 c33c de37 963d 3624 a0bb
000000c0: 71cf 5cbc c8da a13c 9a57 f2bc 7fa6 833d
000000d0: ed5e dfbd cde1 0d3c 7778 42bd 3c4f 413c
000000e0: 6bbe 303c f678 d43c b1b8 a4bc 1d68 ca3c
000000f0: 3622 d2bd c65e 513c 2698 98bc 7ca5 933a
00000100: 2125 0cbd 516b 9bbc e8a1 59bd 78f2 e0bc
00000110: cc97 71bd 2aa2 2fbd 3de6 df3d 4482 66bd
00000120: 195f 563c 54aa 1d3c e097 a7bd 9fe3 303c
00000130: 34ce 17bb b012 27bd fbf9 37bd e2c6 5abd
00000140: 364e 703c 9cd0 38bc 9878 3bbc df90 14bc
00000150: 486b 2cbc 104a 70bb aa6c 043d 87ad 57bb
00000160: d7f6 a93c 51fc 793e e9af 433d 108f 0fbd
00000170: 6013 4abd dc97 a8bd d705 79bd 15c1 823c
00000180: 666b 27bd 4b63 c3bd 58f7 a43c d479 ffbc
00000190: acf3 a63c f6f8 85bd f2ec 77bc b053 0a3c
000001a0: 53f2 db3d 2418 2c3c b280 513c 67dd 80bd
000001b0: 0db1 823d f755 9b3c 749e 47bd c760 913d
000001c0: 6885 09bd b7c3 df3b 3d67 9b3d d2ae 273d
000001d0: fc6b 573d 9b7c e5bb 9dd8 e33c ffd7 ecbd
000001e0: bdf0 943c 6ad3 c43d d474 12bc 621f c6bd
000001f0: 8605 523c 1615 d5bd efbb d7bb e184 253d
00000200: 6e80 e93c 59b3 dcbc 5ccc 76bb 4958 973d
00000210: 77d3 45bc 4c00 47bc 0ce1 3e3d bb54 ba3c
00000220: d976 603d e040 5e3c a0f0 8939 4721 003e
00000230: e223 6dbc 3dd4 f63d 25e5 9abd 8722 a93c
00000240: 1969 233d 92ea fa3b 0e0a 18bd b496 a93b
00000250: 7dd8 cf3c cc56 943d b805 f7bc 521f e0bc
00000260: 89b6 8e3d 6c27 90bb 4c38 bf3c 0a43 903d
00000270: 1fcc d2bc 1a3b 263c 32be b63d 80a2 61bd
00000280: 1c0a 7c3b 5b80 8dbd 8cf8 233e 2664 293c
00000290: f1a5 57bd a759 88bd 14a1 eabc 9370 bebc
000002a0: 23d2 fbbc c9c4 d2bd dd63 d9bb b1e2 f0bd
000002b0: e81f 7abd 8139 a1bd 7903 c2bb b979 bdbd
000002c0: 2f2e 4cbb a988 383d 615d 5f3c 7004 30bd
000002d0: 105e 80bb 956d d5bc bff1 133c 9e13 0bbe
000002e0: e148 48be cda8 75bd 1e4d ac3c b03a dcbd
000002f0: effb 383c 796d 1d3d 79ea 0cbd 587e 4bbb
00000300: 0bfc ccbd 1899 d3b9 89dc 53bc 8e61 583d
00000310: ab41 383d 11fa 933c 04cd e0bd 2460 0bbd
00000320: c5d5 c2bd d74b 743d 3d3f 96bd ff1c 783d
00000330: e44b 893d 4744 033e 8609 d03c 4a92 4b3d
00000340: 7dda 64bc e1f9 943c d50d 5b3d 1879 db3c
00000350: 0daa 9a3d c191 b73c ef2c c03c b171 423d
00000360: a12b d53a 22b8 1f3c c107 d93b e09c 1a3d
00000370: de28 6d3d d5d9 f03d 2986 9a3c ba76 1bbb
00000380: be84 933d 2b5e 703d 5843 b33d 89af d63c
00000390: 9974 cebc ff63 803d 3444 7b3c c09f 36bd
000003a0: 75ca 653c b598 a5bc 3bda 7e3d 5787 423a
000003b0: 2033 16be 52a5 06be 744c 053c 11dc bd3c
000003c0: 2a13 20bd 3d8a e53c 67d6 903b 5c39 b63c
000003d0: 9659 123c 6d5b 8c3d eace 9c3d 1203 5e3e
000003e0: fa7d edbd 0432 6fbc a6cf fcbc 81e2 b13d
000003f0: d661 90bc 5379 8f3d 243c 1f3b 54fa 58ba
-0.4893331 0.032186076 0.0632619 0.021034312 -0.052230153 0.11225761 -0.14268573 -0.0011858066
-0.1586125 0.0033967253 0.0041846586 -0.036753662 -0.02540952 0.0065207044 -0.032664903 -0.18168935
0.010180777 0.10913787 0.057192985 -4.0288083e-05 0.08138668 -0.02971344 -0.04809257 0.0060585504
0.008532472 -0.13244806 -0.11077179 0.016920198 0.005054019 -0.08825738 -0.13051993 -0.2480551
-0.18606278 -0.07428525 -0.05563168 -0.0083449315 -0.0005186233 0.014583373 -0.15288208 0.19289105
-0.1817698 0.018628657 -0.07807661 -0.012079177 0.024216665 0.023896616 0.073348746 -0.004887129
-0.013477192 0.019757643 -0.029582787 0.06428241 -0.109067775 0.008659792 -0.047478165 0.011798676
0.010787587 0.025936585 -0.020107599 0.024707848 -0.102604315 0.012778943 -0.018627238 0.0011264528
-0.034215096 -0.01897207 -0.05313292 -0.027459368 -0.058982655 -0.04287926 0.10932586 -0.056276575
0.0130841965 0.009623129 -0.08183265 0.010796457 -0.0023163678 -0.040789306 -0.044916134 -0.053412326
0.014667084 -0.011280205 -0.011442326 -0.009067743 -0.010523625 -0.0036665238 0.032330193 -0.0032909827
0.020747585 0.24412657 0.047775183 -0.035048544 -0.049334884 -0.0823209 -0.060796585 0.01596121
-0.040873908 -0.09540423 0.020137474 -0.031186022 0.020379864 -0.06541626 -0.015132176 0.008442804
0.10739579 0.010503802 0.012787031 -0.06292229 0.06381426 0.01896189 -0.048735097 0.07098537
-0.03357449 0.006828751 0.075880505 0.040938206 0.052593216 -0.0070033795 0.02781325 -0.115646355
0.0181812 0.096106365 -0.008938987 -0.096739545 0.0128187 -0.104044124 -0.0065836827 0.040409926
0.028503623 -0.026940988 -0.0037658429 0.07389886 -0.012074343 -0.012146067 0.04660134 0.02274548
0.054800842 0.013565272 0.00026309956 0.12512694 -0.014473887 0.120522 -0.07563237 0.020646347
0.03989515 0.0076573575 -0.037118964 0.005175436 0.025371784 0.07243118 -0.030154094 -0.027358685
0.069684096 -0.0043992307 0.023342274 0.07044037 -0.025732098 0.010145927 0.089229956 -0.055086613
0.0038458174 -0.069092475 0.16012782 0.010338819 -0.05264849 -0.06657725 -0.028641261 -0.023247039
-0.03073985 -0.1029144 -0.006634219 -0.11761988 -0.061065584 -0.07872296 -0.005920824 -0.092517324
-0.0031155457 0.045052204 0.013633103 -0.042972982 -0.003917463 -0.02605323 0.009029805 -0.13581702
-0.19559051 -0.059975434 0.021032866 -0.10753381 0.011290534 0.03843448 -0.034403298 -0.0031050649
-0.10009011 -0.0004035912 -0.012930998 0.05282741 0.0449845 0.018063577 -0.109766036 -0.034027234
-0.095134296 0.05964264 -0.073362805 0.060574528 0.06703928 0.12819014 0.025395166 0.04970006
-0.013968107 0.018185558 0.053479988 0.02679114 0.07551966 0.022408368 0.023458926 0.047471706
0.0016263613 0.0097484905 0.006623239 0.037747264 0.057900302 0.11760298 0.0188628 -0.002372189
0.07203053 0.058683556 0.08753079 0.026206749 -0.025202082 0.06269073 0.015336085 -0.044585943
0.01402532 -0.020214418 0.06221984 0.000742068 -0.1466794 -0.13149002 0.008135904 0.023176225
-0.039080776 0.028020019 0.00442009 0.022244148 0.008932492 0.068533756 0.07656653 0.21680859
-0.11596294 -0.014599327 -0.030860733 0.0868578 -0.017624777 0.07005563 0.0024297321 -0.0008277048

gat_layer_list.0.a.weight f4 [8, 128]
00000000: 3c00 91bb 081d e3bb 44f8 52bb 163c 2ebb
00000010: d5e9 783b 8ae0 d73b b44b 22bb b768 203b
00000020: 0f78 4fba 086c b23a 376f 1aba 6eba a838
00000030: 21ce de38 54a1 00b9 e4cc 6439 9019 dfb9
00000040: 029a fcba e98b 713b 65a5 babb b001 1dbb
00000050: c7e7 0a39 8e50 7b3a 7978 113b 0da7 da39
00000060: 2e45 30b8 5805 82ba f884 7f38 a89a 683a
00000070: 0e8b b839 06b4 58ba c8d7 c23a d39f 74ba
00000080: ff92 3ebb 9d92 6e3b cda4 1f3c 6772 8f3b
00000090: cdff 843a 4302 733b 8bc4 4dbb 182a 17bb
000000a0: 68c4 3aba c642 c13a dbcf c1ba da07 e539
000000b0: 3b74 19ba 8015 beb4 e302 3939 d650 5bba
000000c0: c800 08bc ad0b 9c3b a462 8438 324a 023b
000000d0: e665 60b9 2815 82bb 874c 7ebb 57d2 8ebb
000000e0: 6916 c2ba 3f2e 9939 4b64 4639 22b5 51b9
000000f0: c446 67ba 77d5 c1ba 5c3d baba 5707 25ba
00000100: 4a77 46bb f261 8d3b 33a2 ecbb d177 0abb
00000110: 6499 273b 1388 553b c978 893b 0b8f aeba
00000120: 28b5 81ba e92c 86b9 d632 8a39 93ab 28ba
00000130: 9b6c 843a 50a4 e437 fffb 453a 5f4a 5d3a
00000140: 83b3 aaba 9a2d f13b 087f 613b 82e4 b83a
00000150: c7b0 433b a557 bfbb 9f38 173c d460 27bb
00000160: edc5 bdba bfd5 0a3a dc65 7bba 9bb3 0cb8
00000170: 1804 28ba 1fac 043a bbb6 b9ba 58a9 3a3a
00000180: b141 353b ded5 8dbb a134 023c e344 90bb
00000190: 69f9 88ba c9eb 37ba c43e 00bb c043 35bb
000001a0: ca54 79b9 606c 3aba 4c58 86b9 b20f 47ba
000001b0: c893 68b9 7b43 7b38 6137 0f39 721e 93b9
000001c0: 119a 173b deeb 1ebb 41c0 d73b 6245 80bb
000001d0: 8c95 d6bb ed69 0f3b 0aeb 183c ebfd a4bb
000001e0: 2292 b339 fc84 61ba ace4 ee39 18cd 49b9
000001f0: 3240 c2ba 7024 2b3a 423d 2f39 5653 813a
00000200: 3a6e cabb 6d80 afba 37be 8fbb cc20 adbb
00000210: 8819 993b 8eae 433b 673f a4bb c307 133c
00000220: 14f1 37b8 dd9f 7cba 1312 2e38 0498 c1ba
00000230: 309a c2ba 3110 47b9 b9d2 3538 49a6 bc39
00000240: 018e 72ba 54d5 293b faff a3ba 1264 78bb
00000250: ac3e 8cbb cc11 913a bd1c 4e3b ab55 2d3b
00000260: e287 30ba 6c13 6cb9 08c7 2eba 7c49 ae39
00000270: cdd6 203a 02d3 6eba 9d60 2339 9ec7 813a
00000280: 342a aeba 6a4a 593b 4c44 843b 910a 413b
00000290: 62b0 f33a 369d 0abb eed5 01bb 3dc3 95ba
000002a0: d4d3 6638 090f 09ba 5663 8f3a 19a3 b4b8
000002b0: d7b3 9a3a 741e 3aba 9eac 303a bd93 33ba
000002c0: 84d5 0cba 141c 56ba fcf6 1f3a 82eb 82b9
000002d0: fc51 c5ba 82df 56bb 083b a43a 9a11 eaba
000002e0: f87e cfb8 1548 b3b9 4926 cd38 37b1 8aba
000002f0: ee1f 3b39 f817 7138 a693 ba3a ab29 d639
00000300: 9332 253b b7b2 cf3b b65b 33bb a3b6 14bb
00000310: fc2d 213b c367 f23b 5c2e 0f3b 58d0 c8b8
00000320: bdaa c1ba 04da 1a39 3825 de38 5bf9 bb38
00000330: 39db dbb8 12fb 3eba b03a 673a 80d8 0bba
00000340: d934 e739 cfcf 773a f0c6 76b9 1edb 423b
00000350: a5b2 a43b 4892 923a 202d 893b 72b0 02ba
00000360: d7c3 c7b9 91b3 72ba b380 7a39 3169 b9b9
00000370: 932a 17ba 3dca 0cba 8007 313a 787b 823a
00000380: 555e e23b 2a8a 93ba 8fee f039 0608 4f39
00000390: 75f4 f4ba f9da c2bb 2cab 21bb 8099 ddb9
000003a0: aa8d b4b8 aec5 d439 d928 d939 29b0 3b3a
000003b0: 3914 3139 9184 053a 0f0a 24ba a0f7 d736
000003c0: 47b2 4c3a 3fe2 bfba d41c 503b cc2e bab9
000003d0: 4a55 05bb b257 ba3b aacf e73b 3390 eeba
000003e0: 5854 c7b9 797d 173a 9754 b239 3bb9 17ba
000003f0: 3a9a 5338 388b 70b8 a5e4 c8b9 70cd c2ba
-0.004425077 -0.006930951 -0.0032191435 -0.0026586107 0.0037981172 0.0065880464 -0.002476436 0.0024476477
-0.00079143135 0.0013612518 -0.0005891206 8.0455895e-05 0.000106241794 -0.0001226713 0.00021820102 -0.0004255292
-0.0019271972 0.0036857075 -0.005695986 -0.0023957305 0.0001324705 0.0009586894 0.0022197051 0.00041704663
-4.20261e-05 -0.0009919805 6.0920574e-05 0.0008873143 0.0003519882 -0.00082665717 0.0014865333 -0.0009331677
-0.0029079316 0.0036403306 0.009743881 0.0043776515 0.0010147035 0.0037080206 -0.0031397666 -0.0023065861
-0.0007124604 0.0014744631 -0.0014786677 0.00043684134 -0.00058538065 -3.54059e-07 0.0001764405 -0.00083662325
-0.0083009675 0.004762134 6.312624e-05 0.001988065 -0.00021400265 -0.003969807 -0.0038802938 -0.0043585706
-0.0014807704 0.0002921689 0.00018920114 -0.0001999927 -0.00088224956 -0.0014788349 -0.001420896 -0.0006295344
-0.0030283504 0.0043146545 -0.007221484 -0.0021128545 0.0025573606 0.0032582327 0.004195307 -0.0013317777
-0.0009895908 -0.00025591932 0.00026359287 -0.0006434258 0.0010103168 2.7256232e-05 0.0007552504 0.0008441563
-0.0013023469 0.0073601725 0.0034407992 0.0014106187 0.0029860006 -0.0058393055 0.009229808 -0.0025539892
-0.0014478542 0.0005296133 -0.00095900684 -3.354587e-05 -0.00064093014 0.00050610484 -0.0014168838 0.0007120571
0.0027657563 -0.0043284735 0.007947118 -0.004402743 -0.0010450307 -0.0007016031 -0.0019568661 -0.002765879
-0.00023778077 -0.0007111486 -0.00025624258 -0.00075935863 -0.00022180297 5.990591e-05 0.00013658173 -0.00028060708
0.0023132602 -0.0024249475 0.0065841977 -0.003914521 -0.006548589 0.0021883205 0.009333381 -0.005035152
0.00034250418 -0.0008602885 0.0004556527 -0.00019245257 -0.0014820157 0.0006528562 0.00016712121 0.0009866755
-0.006177691 -0.0013389714 -0.004386689 -0.0052834507 0.004672233 0.0029858681 -0.005012441 0.0089740185
-4.385512e-05 -0.00096368586 4.1501666e-05 -0.0014770036 -0.0014846977 -0.0001898415 4.3350014e-05 0.00035982046
-0.00092527276 0.0025914507 -0.00125122 -0.0037901443 -0.004279932 0.0011067926 0.0031450235 0.0026448767
-0.00067341153 -0.00022513949 -0.0006667231 0.00033242616 0.00061355234 -0.0009110422 0.00015580883 0.000990141
-0.0013287724 0.0033155927 0.004036462 0.002945576 0.0018591995 -0.0021150834 -0.001981135 -0.0011425983
5.5033554e-05 -0.00052283757 0.0010939639 -8.613448e-05 0.0011802864 -0.0007099875 0.0006739589 -0.0006850323
-0.00053723925 -0.0008167636 0.0006102172 -0.00024971 -0.001505434 -0.003278703 0.00125298 -0.0017858029
-9.894179e-05 -0.00034195246 9.782293e-05 -0.0010581379 0.00017845604 5.74812e-05 0.0014234676 0.00040848306
0.0025207147 0.006338443 -0.0027367896 -0.0022691868 0.002459406 0.0073976233 0.00218477 -9.57555e-05
-0.0014775615 0.00014767802 0.000105927174 8.963301e-05 -0.00010483567 -0.0007285337 0.0008820696 -0.000533469
0.00044099128 0.0009453268 -0.00023534498 0.0029732655 0.005026179 0.0011182511 0.0041862875 -0.0004985399
-0.0003810215 -0.0009258325 0.00023889802 -0.00035364323 -0.0005766537 -0.0005370712 0.0006753132 0.000995501
0.006908218 -0.0011256386 0.00045954107 0.00019744047 -0.0018688577 -0.0059465137 -0.0024668677 -0.0004226677
-8.609456e-05 0.00040583074 0.000414199 0.0007159734 0.00016887569 0.00050933013 -0.00062576024 6.4363267e-06
0.0007808548 -0.001463957 0.0031755464 -0.0003551155 -0.0020345026 0.0056867236 0.007074316 -0.0018200934
-0.0003801908 0.000577889 0.0003401383 -0.00057877944 5.0449955e-05 -5.7350117e-05 -0.00038317326 -0.001486225

gat_layer_list.1.W.weight f4 [24, 64]
00000000: 1855 d1be d147 4cbe 10bf a9be deb6 dbbe
00000010: 9973 053f ee3b 203f 8235 11bf 4c9c 5a3e
00000020: bf2d f1be ce62 6c3e 339d b4be c5d0 d1be
00000030: db37 febe a238 d83e aaea ae3e 43ed 0b3e
00000040: 6a45 15bf 082d cb3e 654d 983e a918 083f
00000050: 7d7c cd3d 660c 40be 02f0 02bf 03ac abbe
00000060: 441d f2be b666 7ebc 3b53 303e 0c81 e93e
00000070: 5db4 26be 80d8 fdbe 0458 c5bd 3b89 d3be
00000080: d6d7 47be a31f bc3e 1174 95be b0ff cabd
00000090: 44ff df3e f46b a03e 14bc 193f f3d5 1abf
000000a0: 5d1d 22bf 832e 583e 46e1 813e af7d bd3e
000000b0: c37a 5a3e 552b 16bf 8323 ef3e 1fcc e1be
000000c0: 8eef ac3e 56a8 cebe dae7 053f 3e54 97be
000000d0: b916 76be 204d 0dbf d1f0 23bf d06c cbbe
000000e0: 2bf3 9f3d 2342 09bf 9ce8 9c3e be96 0abf
000000f0: 80ec 01bf bf33 a73e 56cc 063f eac6 18bf
00000100: 569b a03d cef9 a3be a99a 063f c095 f63e
00000110: 1be1 26bf 9869 93be 6834 b73d 2d7d 8c3e
00000120: 6525 db3e 7bff 9d3e 9e8c b9be 2665 273f
00000130: 7310 a83e b128 1bbf d40a c33d d423 bc3e
00000140: 62f0 133f 07ac b0be 521e a73d adc5 42be
00000150: 3e9b da3e c3cf 2b3f 6e6b a03e 511a 083e
00000160: f06d a6be 534a d53e be50 fd3e ef68 d8be
00000170: 80a4 ffbe 3fd8 2f3f 3739 01bf 81f6 973e
00000180: fd77 e43e db00 6ebd 89e2 c4bd a590 183f
00000190: 21bd 1abf 7496 cc3e f232 a2be 7562 cf3e
000001a0: 5c63 913e 0c65 013f f75a 13bf be67 f3be
000001b0: 7f92 0dbf cb22 7a3e 9b64 95be 4744 d53e
000001c0: 8130 8d3e 900c 203f 0061 1dbe e928 c3be
000001d0: 32de bebe ff77 563d 0b9c 863e 195e 343f
000001e0: 033c 20bf a5ac f7bc 67b8 173e c611 a8bc
000001f0: cd44 373e 1974 39bf 8af6 6a3d 97ed 243f
00000200: 27c5 b43e cdd3 0c3f 47b2 d6be 6bab d43d
00000210: 6038 45bd 26a2 88be ded0 d63e a06a 0cbf
00000220: 0202 e63d 89ee 1abf 703e 053f e34c 6dbe
00000230: 64df 933e 1b9b 513e 6e8e 10bf 8048 d0be
00000240: 124e bbbd cabd 81be 9eb1 1fbf bedf eabe
00000250: 4727 18bf 5927 05bf dee7 713e 49fb 013f
00000260: 59a4 183f c476 b8be 8e51 1dbf d5e5 c3be
00000270: 7184 033f 707c 3abe c1f9 123f f28c 7f3e
00000280: e92b 03bf eb7b c3be c241 1e3f 48f5 f3be
00000290: 95bb c63e 185c 22bf 6d85 aabe 9e15 443e
000002a0: a0df 5d3e a576 11bf c27f d43e 445e 6fbe
000002b0: 79f9 db3e a605 e23e b1d7 8abe 4940 993d
000002c0: 5dca 12bf 5819 41be 2f4b adbe 761b 2d3f
000002d0: a9d5 0a3f 1ba9 ea3e 3e8f a23e 8018 9fbe
000002e0: 6f78 163f 6728 de3e c18a e4be e75a 043f
000002f0: d58d aa3e 9f9f 983e e5cf 20bf 5f43 e9bd
00000300: b9e6 b5be 0928 9dbe cd43 99be 3579 07bf
00000310: 0fa3 f93e 1880 213f 030d 09bf 3b66 5f3e
00000320: d1dd 0ebf e51c ce3e 45b8 70be 5f3f bcbe
00000330: 33ab 09bf 4212 e63e d0ae e73e b551 583d
00000340: e2f6 e9be 28f0 0a3f bdb1 e33e 4bf7 f93e
00000350: ee74 953d 244f 2bbe aafb 13bf 2216 c5be
00000360: ea81 efbe ae11 edbc 8be5 113e 4f02 183f
00000370: fc77 22be f2e5 dcbe 23e9 b3bc 2f17 21bf
00000380: 900a 56be ba17 ff3e c27a babe a8b0 0cbe
00000390: 5f3c 9b3e ff35 923e 78df 223f cc39 09bf
000003a0: f04f 24bf 71c1 113e 2165 883e 7595 da3e
000003b0: 8a45 833e a8a7 d7be ee54 033f 4932 13bf
000003c0: 66b4 bd3e 4f25 e8be 07c5 ef3e 9e42 65be
000003d0: 9808 9cbe a6c7 eebe e33e cbbe 08a7 00bf
000003e0: 6972 d43d 2b03 c9be f5be a83e 0bc0 c8be
000003f0: 2c65 13bf ca77 d83e ce7b 153f 03aa f8be
-0.40885234 -0.19949271 -0.33153582 -0.42912954 0.52129513 0.62591445 -0.5672227 0.21348685
-0.47105214 0.23084566 -0.35276183 -0.4097959 -0.4965199 0.42230707 0.3416341 0.13664727
-0.5830904 0.39682794 0.29746547 0.5316263 0.1003351 -0.1875473 -0.5114747 -0.33529672
-0.47287953 -0.015527418 0.1721925 0.45606267 -0.1627974 -0.4957924 -0.09635928 -0.41315636
-0.19515929 0.36742887 -0.29190114 -0.0991205 0.4374944 0.31332362 0.6005261 -0.6048271
-0.63326055 0.21111493 0.25367182 0.3700995 0.21335892 -0.5865987 0.4670678 -0.44101045
0.33776516 -0.40362805 0.523069 -0.2955646 -0.24032106 -0.5519581 -0.6403933 -0.39731455
0.078100525 -0.5361654 0.30646217 -0.54136264 -0.50751495 0.32656667 0.5265554 -0.5967852
0.07842128 -0.32026523 0.5257974 0.48161125 -0.65187234 -0.287915 0.089455426 0.27439252
0.42801967 0.3085898 -0.36240095 0.65388715 0.3282505 -0.60608965 0.0952355 0.36746085
0.5778867 -0.34506246 0.0816008 -0.1902072 0.42696565 0.67113894 0.31331962 0.13291289
-0.3250575 0.41658267 0.49475664 -0.42267558 -0.4993019 0.6868934 -0.5047793 0.29680255
0.44622794 -0.058106285 -0.09613521 0.5959571 -0.6044484 0.39958537 -0.31679493 0.40504804
0.28396118 0.5054481 -0.57560676 -0.47540087 -0.5530166 0.24427335 -0.29178318 0.41653654
0.27576068 0.6251917 -0.15369034 -0.3811715 -0.37278897 0.05236053 0.26290926 0.7045608
-0.6259157 -0.03023369 0.14816438 -0.020516288 0.17897339 -0.72442776 0.057364024 0.64425033
0.35306665 0.5501068 -0.4193289 0.10384258 -0.048149467 -0.2668621 0.41956228 -0.54850197
0.11230852 -0.60520226 0.520484 -0.23173861 0.2888137 0.20469324 -0.5646733 -0.40680313
-0.0914575 -0.2534011 -0.623804 -0.45873827 -0.5943493 -0.52013165 0.23623607 0.50774056
0.59625775 -0.3602811 -0.6145257 -0.38261285 0.51373965 -0.18211532 0.57412344 0.2495611
-0.51238877 -0.3818048 0.6181909 -0.47648072 0.3881499 -0.63421774 -0.3330492 0.19148871
0.21667337 -0.5682166 0.4150372 -0.23375803 0.4296377 0.44144934 -0.27117684 0.074829645
-0.5734003 -0.18857324 -0.33846423 0.6762003 0.5423227 0.45832142 0.3174991 -0.3107338
0.5877752 0.433902 -0.4463711 0.51701206 0.33311334 0.2980928 -0.6281722 -0.11389803
-0.3552759 -0.30694607 -0.2993454 -0.5291932 0.48757216 0.6308608 -0.5353548 0.21816342
-0.55807215 0.4025642 -0.23507793 -0.36767098 -0.53776854 0.44935805 0.4525056 0.052812297
-0.4569617 0.542727 0.4447154 0.48821482 0.07297693 -0.16729409 -0.57805884 -0.38493448
-0.46778804 -0.028939094 0.1424772 0.5937852 -0.15866083 -0.43144184 -0.021961754 -0.62926
-0.20902467 0.4982279 -0.36421782 -0.13739264 0.30319497 0.2855682 0.63622236 -0.53603816
-0.64184475 0.14233948 0.26639655 0.42692152 0.25638992 -0.421201 0.5130147 -0.57498604
0.37051696 -0.45340964 0.46830007 -0.22388694 -0.30475307 -0.46636695 -0.39696416 -0.5025487
0.103733845 -0.3926023 0.3295819 -0.39209017 -0.5757625 0.42278892 0.58392036 -0.4856721

gat_layer_list.1.a.weight f4 [8, 48]
00000000: ea8b c63b 9ec1 613b 2618 d4bb bc51 043a
00000010: b76d 4a3a 2847 983a 2335 cb3b 27b7 6fba
00000020: 586f c5b9 b31c 6eba 343c 27ba 1f39 3b3a
00000030: bd09 cdba 6d73 e1ba ea27 0abb b06f b13a
00000040: 4cb6 0337 65b6 19bb 4d37 193c 6996 a43b
00000050: e411 d8bb e63e 2eba e9b3 993a 87c9 173a
00000060: 82ab 4b3b 089f 4239 5392 2fbc 6806 7d39
00000070: 8be8 ddba 443d 1b3b 46ee 733b 675c 45ba
00000080: ffe3 18bb 8822 04ba a1eb a4b9 c43e 8bb9
00000090: 29cb 933b 5ea4 8bbb 1c69 2fba 5def a7ba
000000a0: 683a 22bb 7598 a33a 67c7 bf3b b3e5 a2ba
000000b0: 3425 89ba 5106 2739 3a86 b939 a5c2 c13a
000000c0: 576c 3e3c 80a4 0a3c 5264 dcbc 1e8e 4ab8
000000d0: b067 0137 007d ad39 0dbf 753c 26d1 373c
000000e0: 7c2a 90bc f39f 253a 6138 7a3a c301 1abb
000000f0: d0b6 763c 2557 dd3b bf54 d0bc 7bf3 363a
00000100: 598a 12bb bcae 5638 6342 983c 75fa a23b
00000110: d552 97bc e462 c0ba f349 123b f9a2 1e3b
00000120: cc75 5f3c 3c94 2e3c 2449 80bc 21da 9f39
00000130: e4cd 23bb e83c 763a b1eb 823c b6f2 ebba
00000140: bd8d 9fbc 100f d237 b8b0 6ab9 0c73 2eba
00000150: 1196 6a3c 9070 8e3b 969d d8bc 8cf4 663a
00000160: 9c46 b839 1f0b fa3a 4b03 633c ff1f 523b
00000170: fa30 debc 3fa0 22bb c056 083b 2e00 6fb8
00000180: 1643 963b 94d0 a63a a923 15bb 6ce5 73b8
00000190: c160 e6ba 43bd abb9 c936 883b 6532 81bc
000001a0: 2c4e 28bc f195 74ba 22ec 9839 5ed9 c13a
000001b0: e08f d13c ddcf 87bc 0d5b e3bb dee0 8ab9
000001c0: b8fc 743a f47f f1b9 f01e 523c e54a 22bc
000001d0: 8d04 e2bb 3137 b23a aa95 323a ece9 303a
000001e0: ca2b 043d 4320 22bc 6a77 a93a 68ea 233b
000001f0: 007b c2ba d773 21b9 4f80 813c 5f39 e1bb
00000200: c093 09bb c2d0 a839 5019 5bb9 f4ad 3bb8
00000210: a61e 593a 0e59 5ebc cbf3 6fbc 9cf2 573a
00000220: 4f4c 143b 21d0 79ba 8a64 e13b 6dff ecbb
00000230: ea4e 61bb 6b95 95ba 40ab 0b3b 19a0 153a
00000240: 2c4c 0f39 ab3d d73b 7183 57bb 5749 e7ba
00000250: d530 5cb9 ce93 23bb 8a0e 67bb 2532 5a3a
00000260: ee4c 82bb 037c 03ba 2166 1738 5f66 2a39
00000270: f756 07ba d29d 953b e01b abbb c866 e5ba
00000280: f774 8d3a 1a52 973a c48f fbb9 e8b5 133c
00000290: 8814 bbbb 529e 6438 47bf 04ba 3cbe 083a
000002a0: 8abc 4b39 969d b53a 721a 76bb a741 823a
000002b0: 943e 4aba bcbf c1b7 f1db 2eba 81d8 833c
000002c0: 194f a0ba 8818 a839 603e ad39 38ea 6bb8
000002d0: 2996 93ba 0f71 883c 1abf 22bb 5560 0aba
000002e0: c288 6238 89a5 023b d8fb e0ba 9ae1 813c
000002f0: b8fc 0b39 ebab a83a 657d 6ab9 f022 463a
00000300: 623a 393b d4d1 18bc ff4c 0e3c c64b c139
00000310: 78b2 ef39 0601 adba 2034 51ba eaa1 97bc
00000320: e2f4 ab3b 7070 a939 aeaa 15ba 7ce2 c0b8
00000330: 7b4d 2cba 0dce f6bb 0568 8c3c f404 fb3a
00000340: cf45 0abb ce54 0fbb c0ac c939 2e3a 2dbc
00000350: e457 333c e2b8 7eba e165 0ab9 857a 8e3a
00000360: dc75 273a 9aa0 32bc 9649 863c 1028 0037
00000370: 5ea9 f43a 9510 21bb ded5 943a 3065 9fbc
00000380: a5cb 8c3c ad5f 2eba 5cf5 31ba 9eaf 1c39
00000390: 1a4e 90bb 0811 d4bb 03ca 963c 33fe 193b
000003a0: 6c39 acba 1248 85b9 d847 4f3a 0102 24bc
000003b0: 32de 333c 3e32 e0b9 9d91 223b 9bed b4ba
000003c0: 7848 37bc 81b2 9b3b 4ab1 56bb 1ec5 5d39
000003d0: 4253 f43a 3c8f e538 77d6 fbbb 0b6a 093c
000003e0: a053 923b 12ba 983a 64ad 9cb8 3e9a 8c3a
000003f0: 716e 03bc f85e 173b 4a79 f2bb f30b 0a39
0.0060591595 0.003444768 -0.0064726053 0.000504758 0.0007722037 0.0011617886 0.0062014027 -0.0009144418
-0.00037657726 -0.0009083256 -0.00063795154 0.00071419956 -0.0015643161 -0.0017200537 -0.002108092 0.0013537314
7.850653e-06 -0.0023454663 0.009351564 0.005022813 -0.0065939296 -0.0006646946 0.0011726591 0.0005790223
0.0031077568 0.00018560525 -0.010716039 0.00024130347 -0.0016930265 0.002368764 0.003722088 -0.00075287226
-0.0023329256 -0.0005040546 -0.00031456075 -0.0002655891 0.0045103026 -0.0042615375 -0.0006691383 -0.0012812425
-0.002475405 0.0012481349 0.005852628 -0.0012428075 -0.0010463358 0.00015928714 0.00035385956 0.001478274
0.01162251 0.008462071 -0.026903305 -4.829291e-05 7.713141e-06 0.00033090264 0.014999163 0.0112192985
-0.017598383 0.0006318085 0.0009545144 -0.0023499585 0.015058234 0.006754773 -0.025431035 0.00069790304
-0.0022360294 5.118431e-05 0.018586343 0.0049737045 -0.018472115 -0.0014677909 0.002232191 0.0024206026
0.013638925 0.010655459 -0.015659876 0.00030489362 -0.0024994547 0.0009393231 0.015981527 -0.0018001411
-0.019476766 2.5040965e-05 -0.00022381812 -0.00066547166 0.014318005 0.0043469146 -0.02644233 0.0008810244
0.00035147823 0.0019076801 0.013855766 0.0032062528 -0.027122963 -0.0024814752 0.002080366 -5.6982208e-05
0.004585634 0.0012726956 -0.002275685 -5.814938e-05 -0.0017576442 -0.00032756673 0.0041569215 -0.0157711
-0.010272544 -0.00093302043 0.00029167632 0.0014789512 0.0255813 -0.01657861 -0.0069383443 -0.0002648895
0.00093455194 -0.00046062435 0.012824759 -0.009905552 -0.006897515 0.0013596771 0.0006812463 0.0006748724
0.032268323 -0.009895387 0.0012929265 0.0025011543 -0.0014837682 -0.0001539731 0.015808253 -0.0068732942
-0.0020992607 0.00032198994 -0.00020894897 -4.474628e-05 0.000828246 -0.013571037 -0.014645527 0.0008237751
0.0022628491 -0.000952961 0.0068784403 -0.0072325976 -0.0034379312 -0.0011412328 0.002131179 0.00057077553
0.00013665919 0.0065686307 -0.0032884742 -0.0017645758 -0.00020999026 -0.0024959925 -0.0035256469 0.0008323512
-0.003976456 -0.00050157326 3.609632e-05 0.000162506 -0.00051628 0.004565933 -0.005221829 -0.0017501945
0.0010792305 0.0011544854 -0.00047981564 0.009015538 -0.0057092346 5.4506883e-05 -0.0005063903 0.00052163354
0.00019429825 0.0013856168 -0.0037552384 0.0009937779 -0.00077150133 -2.3096676e-05 -0.0006670347 0.016094448
-0.0012230604 0.00032061734 0.00033043604 -5.62465e-05 -0.0011259961 0.016655473 -0.0024833144 -0.0005278637
5.4009965e-05 0.0019935092 -0.0017164899 0.015854646 0.00013350218 0.0012868618 -0.00022362692 0.00075583067
0.0028263559 -0.009327371 0.0086853495 0.00036868284 0.00045718602 -0.0013199158 -0.00079804845 -0.018509824
0.005247698 0.00032317964 -0.0005709332 -9.1974594e-05 -0.0006572825 -0.0075318874 0.017139444 0.0019151256
-0.0021098738 -0.0021870616 0.00038466416 -0.010572953 0.010946248 -0.0009716881 -0.00013198658 0.0010870254
0.0006388107 -0.010902548 0.01639251 7.638722e-06 0.0018666198 -0.0024576534 0.0011355241 -0.01945743
0.017186949 -0.000665183 -0.00067885756 0.00014942742 -0.0044038417 -0.006471757 0.018406874 0.0023497462
-0.0013139672 -0.00025421433 0.0007907129 -0.010010243 0.010978268 -0.00042762043 0.002480603 -0.0013803722
-0.0111867115 0.004751504 -0.003275948 0.00021149634 0.0018640535 0.000109462504 -0.0076854783 0.008387099
0.0044655353 0.0011652133 -7.470956e-05 0.001072712 -0.008021937 0.0023097377 -0.0073997127 0.00013165157

exp_avg f4 [64, 500]
00000000: 0879 3338 909e c737 43d6 3438 3e5a 9ab8
00000010: c524 3536 4d5d d1b8 5299 b038 1502 0e36
00000020: d432 7d38 52d7 8b38 2fe5 b537 10c5 ff37
00000030: 2296 bc37 8117 a3b7 c243 81b5 4fe6 4c39
00000040: 86ae d436 bbf1 deb7 0c34 a737 45cc 8ab6
00000050: 4f43 c5b6 7eef 8937 d82a 0338 363d 63b8
00000060: 2b5e 1238 5101 5238 298b b035 bd6c e637
00000070: e1e3 7ab6 b475 18b7 cdeb f5b8 1191 6c38
00000080: 8500 c938 e05d 8337 902c 81b7 5e93 05b8
00000090: 6783 e7b7 cb1c e737 120c 1d38 cc4f 2bb9
000000a0: 766f 9038 b152 9fb7 50b3 70b6 4919 c438
000000b0: f76c fbb7 52db 68b8 da18 08b9 378b a3b7
000000c0: 4f9e 4538 a1ba 43b6 5fae 9f37 852f 9138
000000d0: 3b2c 1a39 bcaa 9537 625e 5438 6ad2 df37
000000e0: d057 75b7 74cc dd36 e748 e336 8a63 9837
000000f0: 8be3 0638 e6bb a1b7 bc03 ca38 1ad2 6e38
00000100: d393 b737 dab8 0a37 7619 0138 4d89 6e37
00000110: 77c0 b8b7 e387 9538 6518 b7b7 2461 22b6
00000120: 5ff5 9a37 3133 a1b7 6c03 7237 9de2 1438
00000130: dd68 ac37 94d0 6e37 2d81 afb7 4035 1d38
00000140: a64f 8fb7 3538 1fb8 cc7e 0cb8 ceae 8137
00000150: 0d6b 02b8 1a8d 2938 c4c4 6ab8 7ee7 5838
00000160: 27da 95b7 f309 5ab8 9610 79b7 6481 1eb9
00000170: 837e 3d38 e8c0 0738 343d 4836 ba01 f138
00000180: ac7f f537 58bf 53b8 aa78 d736 6f62 8537
00000190: 61c1 de37 178b 6d36 9e97 3938 ec3c 45b7
000001a0: 3de8 6138 cfa6 d137 29d8 5337 5ae7 9d37
000001b0: abc9 00b8 3ae7 2037 0422 d238 bcb7 2637
000001c0: 72f1 9835 1d20 13b7 c7e0 4f38 1142 8437
000001d0: bdbe e6b5 5bb9 d8b4 05d5 9a37 4c16 b338
000001e0: e345 a2b7 5099 0339 165c c7b7 da4d 05b8
000001f0: b04a a037 8894 69b7 ec17 8f38 855f 0639
00000200: cf33 bd38 36f1 52b6 695c 1eb8 ff0a 1c38
00000210: f449 f2b7 0a0a ef37 3781 06b7 2d2e b837
00000220: 3614 9ab5 6c41 6b37 9144 c8b8 ef11 5637
00000230: c5b4 eeb7 3279 5136 2111 b6b6 0b23 8737
00000240: e649 d7b8 263f ffb7 84a8 1538 6214 0eb8
00000250: 63f0 46b8 0057 9e38 b6f3 efb7 83aa beb7
00000260: 5cad 77b6 b934 1e37 bada f6b7 2c32 3038
00000270: 8b3b 82b6 0877 c0b6 09d3 fc37 787b 2c37
00000280: 5dd3 e6b7 7f1a b136 5f38 3938 1a44 85b7
00000290: 8dfa 4738 75d5 1f38 707b 4837 e37a c4b5
000002a0: 42b4 5438 e3c6 1f37 35eb 2038 e414 5737
000002b0: 1b38 96b5 c133 4f38 c577 1738 5094 74b7
000002c0: 3ca7 a437 a443 3db9 773e 17b8 588d 4c38
000002d0: ac5e ef37 1499 b737 6a9e 04b8 9b01 a137
000002e0: eeac a738 d707 0e38 b711 8eb6 fd48 d236
000002f0: 54cc d236 749e 4d38 1b16 5538 e297 4d38
00000300: 52e9 9038 506d 71b7 9e17 d337 0f4d 0638
00000310: 0008 6938 1783 6536 6751 67b5 591d 9237
00000320: 12da 8438 ea0e 9537 974e a334 85a1 d337
00000330: 786d a938 30d0 dfb7 8af0 e734 a462 4238
00000340: 36b1 d437 7878 b737 0d41 a736 d3d4 3538
00000350: cf1b 9737 8c5e 1cb8 e26e 1cb7 05c4 ffb8
00000360: d349 bd38 88e7 1038 eafb eab7 bed9 5ab8
00000370: c35d 0d38 1c76 86b5 0db2 d436 cdf5 7db8
00000380: a072 dc37 9431 96b8 0ca7 b3b8 ff83 1cb8
00000390: fa25 7337 52f8 4537 87ac dfb7 f347 fc37
000003a0: d953 c238 8220 9a38 a47d 0f38 64ba e236
000003b0: bef9 1138 065f 08b8 70d2 3237 48b4 9bb6
000003c0: a15d 84b8 0824 c6b6 98d9 cb36 6c71 19b7
000003d0: 1e5b b635 15f9 dbb7 3f4e 8037 bb5f 6f38
000003e0: e96c dfb7 ea72 8cb8 b06b e937 99d4 2cb6
000003f0: 8bd0 02b8 221e 0ab8 5a10 ca37 b506 fab6
4.2789645e-05 2.3796485e-05 4.311489e-05 -7.360101e-05 2.6992504e-06 -9.983275e-05 8.420892e-05 2.116086e-06
6.0367238e-05 6.668143e-05 2.1683603e-05 3.0490133e-05 2.2481257e-05 -1.9442059e-05 -9.630969e-07 0.00019540753
6.3384095e-06 -2.6577027e-05 1.9932188e-05 -4.1365006e-06 -5.8788933e-06 1.6443195e-05 3.1272735e-05 -5.4178025e-05
3.4896813e-05 5.0069128e-05 1.3153523e-06 2.7468772e-05 -3.7385546e-06 -9.087311e-06 -0.00011726432 5.640189e-05
9.584524e-05 1.566013e-05 -1.539875e-05 -3.1846917e-05 -2.7598535e-05 2.7550754e-05 3.744296e-05 -0.00016337557
6.887216e-05 -1.8992783e-05 -3.586716e-06 9.350718e-05 -2.9972272e-05 -5.551737e-05 -0.00012979229 -1.9495941e-05
4.7115896e-05 -2.9165897e-06 1.9035475e-05 6.92299e-05 0.00014703062 1.7841689e-05 5.063264e-05 2.6681653e-05
-1.4623583e-05 6.6101147e-06 6.773614e-06 1.8166163e-05 3.2160006e-05 -1.9280193e-05 9.632806e-05 5.6939294e-05
2.1884136e-05 8.26848e-06 3.077971e-05 1.4217873e-05 -2.2024133e-05 7.1301845e-05 -2.182666e-05 -2.4196424e-06
1.847249e-05 -1.9216533e-05 1.4425121e-05 3.5497e-05 2.0552829e-05 1.4234469e-05 -2.0921778e-05 3.748131e-05
-1.7084018e-05 -3.79609e-05 -3.349669e-05 1.5459398e-05 -3.1094114e-05 4.042415e-05 -5.59732e-05 5.1714007e-05
-1.786377e-05 -5.1984516e-05 -1.4845418e-05 -0.00015116256 4.5178935e-05 3.2366166e-05 2.9837947e-06 0.00011492097
2.9265728e-05 -5.0484523e-05 6.4215465e-06 1.5900672e-05 2.6554511e-05 3.5396713e-06 4.424864e-05 -1.17562995e-05
5.386047e-05 2.4992418e-05 1.2626909e-05 1.882359e-05 -3.0705396e-05 9.59058e-06 0.00010019916 9.93715e-06
1.1395152e-06 -8.76936e-06 4.9561986e-05 1.576639e-05 -1.7191848e-06 -4.0368e-07 1.8457426e-05 8.539538e-05
-1.9344448e-05 0.00012550247 -2.376553e-05 -3.1782176e-05 1.9108265e-05 -1.3922465e-05 6.823227e-05 0.0001281482
9.0218724e-05 -3.1432842e-06 -3.77562e-05 3.720354e-05 -2.8883085e-05 2.8495695e-05 -8.017108e-06 2.1956012e-05
-1.1479776e-06 1.4022324e-05 -9.549515e-05 1.27595695e-05 -2.8455988e-05 3.1213972e-06 -5.4260167e-06 1.6109572e-05
-0.000102657636 -3.0427775e-05 3.568131e-05 -3.387442e-05 -4.7430756e-05 7.550232e-05 -2.8604507e-05 -2.2729166e-05
-3.6906777e-06 9.429809e-06 -2.9427338e-05 4.2008396e-05 -3.8812336e-06 -5.735903e-06 3.0139012e-05 1.0280746e-05
-2.751656e-05 5.2780956e-06 4.4159937e-05 -1.5886548e-05 4.767864e-05 3.810735e-05 1.1949669e-05 -1.4638903e-06
5.0712617e-05 9.523445e-06 3.8366026e-05 1.2819863e-05 -1.11922e-06 4.9400845e-05 3.611275e-05 -1.4578065e-05
1.9628198e-05 -0.00018049643 -3.605938e-05 4.8769027e-05 2.8535105e-05 2.1886583e-05 -3.1618787e-05 1.9193443e-05
7.995391e-05 3.386274e-05 -4.233992e-06 6.2669847e-06 6.2822746e-06 4.902338e-05 5.0803745e-05 4.901726e-05
6.9099144e-05 -1.4390171e-05 2.5164158e-05 3.2019856e-05 5.555898e-05 3.4199963e-06 -8.617266e-07 1.7418222e-05
6.334869e-05 1.7769129e-05 3.0418298e-07 2.5228373e-05 8.078938e-05 -2.6680616e-05 4.3202118e-07 4.634507e-05
2.535489e-05 2.1871398e-05 4.9845607e-06 4.335197e-05 1.8013552e-05 -3.7281352e-05 -9.3241415e-06 -0.00012195859
9.025973e-05 3.4547906e-05 -2.801228e-05 -5.217804e-05 3.3704342e-05 -1.0018152e-06 6.33882e-06 -6.054882e-05
2.627942e-05 -7.161792e-05 -8.5665e-05 -3.731623e-05 1.4492771e-05 1.1799932e-05 -2.666401e-05 3.0074245e-05
9.266259e-05 7.349347e-05 3.421087e-05 6.7570236e-06 3.4803285e-05 -3.2513424e-05 1.0658623e-05 -4.6403475e-06
-6.31169e-05 -5.9050544e-06 6.0752027e-06 -9.145919e-06 1.3586575e-06 -2.6222822e-05 1.5295225e-05 5.7071196e-05
-2.6634387e-05 -6.6971246e-05 2.782591e-05 -2.5753745e-06 -3.1188636e-05 -3.2929827e-05 2.408789e-05 -7.4513614e-06

exp_avg_sq f4 [64, 500]
00000000: d913 0033 5bcc 1b31 ba69 a731 4d2e a031
00000010: 8366 eb30 c188 4532 645e df31 edc1 0b31
00000020: 144f 8932 ed79 ce31 92b4 2b31 48a5 9c31
00000030: fb4f dd30 3734 be31 ca60 5331 cf8b ac33
00000040: ada5 e931 5597 0f32 14f3 4e31 6823 c830
00000050: a188 8230 cb72 ee31 bf93 9c31 9c29 2f31
00000060: c480 7e32 c87d 6f32 a735 7a31 1795 3831
00000070: 2aa5 a531 0e2f 2832 19b4 c431 af1a c431
00000080: f436 ba32 60af b031 cde3 8230 dbcd fd32
00000090: 3ab7 ad31 60d7 f330 2981 cc31 e563 6532
000000a0: a542 b331 4a18 b931 359d 0631 9b62 6f31
000000b0: ed91 9230 e72a 2f31 e6d3 f331 17ee c831
000000c0: c4af 9d31 5019 4132 b66f 5631 c2e1 3531
000000d0: afb1 c131 1af9 4332 1ce4 1b32 4aa2 1a32
000000e0: 4da7 5731 8da1 0531 dab8 ea30 9339 3e31
000000f0: 4c61 6131 c573 3831 f17e 2832 cdf5 4131
00000100: cf98 e031 eca0 cc31 af09 3331 c46f 7a32
00000110: f42e 0532 15ad da31 0861 aa31 409c b331
00000120: aa1e 9931 baf5 a631 6c14 1431 87d4 7530
00000130: 67c8 ac31 1d14 9e32 531e 4a32 fc47 c630
00000140: 2d7d da31 f079 5231 15e2 ba31 02d5 8c31
00000150: 0d35 0631 843a 3a31 73ae 9b31 96ae 1731
00000160: 47fd cf2f 77f4 3032 0102 c032 f0f5 f631
00000170: 4adb 9132 ff14 6231 9868 a231 0507 f931
00000180: 6c28 6d31 4556 6231 b20b 5931 a849 2e30
00000190: e026 a731 b31d 7431 d320 8e31 0db4 5231
000001a0: 7cfc 1a32 6047 3431 b758 1931 4a13 a730
000001b0: 745c 9d30 9228 3131 679f d132 ba92 0032
000001c0: a399 a730 c828 cf30 2eef 8331 cb15 7c31
000001d0: c99d fd30 d743 5931 5df2 4a30 56fa 7532
000001e0: d107 e730 277d d431 7898 2332 a6f7 8732
000001f0: 28a5 a430 23f1 2333 440b 8233 5bfe 3032
00000200: b4d6 2231 4338 6930 a59e 0e31 5097 2331
00000210: b88c 6033 abf6 8731 cf11 1430 71d3 8c31
00000220: c7f8 1531 791b 0030 018a d132 9c31 f031
00000230: 4e38 2031 66cd 6a31 bd25 2931 f664 2b30
00000240: 0428 d531 aec6 4d30 617c 2432 068e c231
00000250: 494c 6232 3fcd 8a32 1540 7831 96c5 a830
00000260: 3ece 3c31 2fc9 3a31 bd5c fc30 21c3 af31
00000270: ab38 f630 583d 6232 bd57 a531 c4c9 6032
00000280: ea74 cb31 6f6c 0631 c252 af32 26a3 8a30
00000290: 81cc 4632 50b8 1d31 b361 5131 46ea 7530
000002a0: 9336 1331 f07a 8e32 4b82 1530 0205 4632
000002b0: 8daa 9030 aedc 0131 6d78 9431 568f 2c32
000002c0: a6e2 cb30 101e 4832 610b c131 6ff7 3631
000002d0: 600f 7631 808a 6030 964d b830 7533 8631
000002e0: c1de fb31 a5c2 3631 9b54 a82f 2a7a bd31
000002f0: cb4a 1f30 9583 a331 ef6c af31 c6ec b931
00000300: 8c50 aa32 af1f 8b30 d9be 0130 de91 0e32
00000310: eb4a 9433 554e 6231 6c27 0231 c4fa 3a31
00000320: 2bea 3132 d9d6 6b31 ec7c e431 2e64 c932
00000330: fae5 1e32 db6b 9032 1bd3 b930 19ef 6831
00000340: 8b3b 5331 992e ce30 3f1c 0c31 16c8 6c31
00000350: cbe2 bc31 9a4d 2232 b0d0 f431 e787 0032
00000360: e763 7c31 eaff 6730 6e8c f830 b8d1 9731
00000370: c90c 7a31 ad01 8232 5d65 9631 3b41 b431
00000380: 8f4a c931 b710 f231 6285 7531 f1ab 5131
00000390: 7066 3731 b3fb 8530 e707 1f31 5562 9532
000003a0: fe3e d631 042d 4f32 3d0d 5031 dafa cb30
000003b0: 8c49 4332 1869 c732 b293 c930 c61f d530
000003c0: 20ba 6f31 0634 0731 835e df30 adc2 ed2f
000003d0: d662 8f30 0922 2131 3277 1231 812c fd31
000003e0: fc70 b331 e2dc 8e31 c4a5 8331 3d8b 5231
000003f0: 8561 3831 016c 2d32 72ff 8431 fa96 632f
2.9820374e-08 2.2671631e-09 4.8723594e-09 4.6618767e-09 1.7127636e-09 1.1498003e-08 6.500885e-09 2.0337396e-09
1.598486e-08 6.0092504e-09 2.4986417e-09 4.558988e-09 1.6102598e-09 5.535664e-09 3.075956e-09 8.034805e-08
6.8000277e-09 8.358104e-09 3.011512e-09 1.4561978e-09 9.497577e-10 6.939762e-09 4.5569943e-09 2.5489504e-09
1.4814024e-08 1.394023e-08 3.6410286e-09 2.6860272e-09 4.820909e-09 9.789586e-09 5.7248255e-09 5.7073843e-09
2.167824e-08 5.142212e-09 9.52349e-10 2.9546689e-08 5.055793e-09 1.774179e-09 5.9518652e-09 1.3352268e-08
5.2171623e-09 5.38697e-09 1.9588928e-09 3.4835128e-09 1.0664373e-09 2.5490239e-09 7.096321e-09 5.8478338e-09
4.5892836e-09 1.1239834e-08 3.12046e-09 2.6467295e-09 5.6372396e-09 1.1407133e-08 9.0740535e-09 9.00088e-09
3.1381717e-09 1.9445878e-09 1.7078279e-09 2.7681366e-09 3.2797116e-09 2.6841331e-09 9.80775e-09 2.8224918e-09
6.5366303e-09 5.955476e-09 2.6053433e-09 1.4577328e-08 7.752295e-09 6.364312e-09 4.9586824e-09 5.227349e-09
4.456372e-09 4.8591717e-09 2.1548443e-09 8.94325e-10 5.028642e-09 1.8402767e-08 1.1764842e-08 1.4426855e-09
6.358866e-09 3.0628335e-09 5.439015e-09 4.0987524e-09 1.9529722e-09 2.7099825e-09 4.5309263e-09 2.2072633e-09
3.7833045e-10 1.0300133e-08 2.2352653e-08 7.187502e-09 1.6979943e-08 3.2899263e-09 4.7267115e-09 7.247652e-09
3.4511016e-09 3.2936367e-09 3.1584304e-09 6.3405503e-10 4.8647593e-09 3.5523555e-09 4.1364756e-09 3.066137e-09
9.021388e-09 2.623402e-09 2.2314859e-09 1.2156331e-09 1.144953e-09 2.5779952e-09 2.440329e-08 7.483942e-09
1.2194515e-09 1.5072823e-09 3.8397934e-09 3.6683214e-09 1.8453018e-09 3.1616219e-09 7.383159e-10 1.4317797e-08
1.6809684e-09 6.1842402e-09 9.522516e-09 1.5828686e-08 1.1979511e-09 3.8170707e-08 6.055646e-08 1.0302382e-08
2.3696147e-09 8.484486e-10 2.0753899e-09 2.3805633e-09 5.2282047e-08 3.95706e-09 5.3867394e-10 4.0985744e-09
2.1823767e-09 4.660517e-10 2.439356e-08 6.9905592e-09 2.331507e-09 3.4168237e-09 2.4614188e-09 6.235291e-10
6.203665e-09 7.4860906e-10 9.574337e-09 5.6622893e-09 1.3172277e-08 1.615865e-08 3.6125176e-09 1.2279766e-09
2.7474836e-09 2.7180922e-09 1.8361771e-09 5.115354e-09 1.7914962e-09 1.3168879e-08 4.8121067e-09 1.3084392e-08
5.921369e-09 1.9561204e-09 2.0410315e-08 1.0087191e-09 1.1571616e-08 2.2951276e-09 3.0469038e-09 8.9463403e-10
2.1422337e-09 1.6586881e-08 5.439104e-10 1.15262555e-08 1.0525852e-09 1.8897413e-09 4.3210577e-09 1.00443085e-08
1.4834611e-09 1.1648368e-08 5.618333e-09 2.6625135e-09 3.5806451e-09 8.1687546e-10 1.3409813e-09 3.9057633e-09
7.3303856e-09 2.6595128e-09 3.0619138e-10 5.5145124e-09 5.795015e-10 4.7588835e-09 5.1055546e-09 5.4111267e-09
1.9827233e-08 1.0122586e-09 4.720114e-10 8.298654e-09 6.9054146e-08 3.2931855e-09 1.8939899e-09 2.7209106e-09
1.0356e-08 3.4319128e-09 6.6498753e-09 2.3445036e-08 9.249101e-09 1.6812853e-08 1.3520521e-09 3.3896355e-09
3.0738387e-09 1.5001717e-09 2.0388737e-09 3.4456256e-09 5.4973035e-09 9.447286e-09 7.1250597e-09 7.481481e-09
3.6727614e-09 8.4400986e-10 1.8084287e-09 4.4185207e-09 3.6387056e-09 1.5134754e-08 4.3770982e-09 5.2461053e-09
5.8583463e-09 7.0450272e-09 3.5728012e-09 3.051124e-09 2.6688234e-09 9.748561e-10 2.3142037e-09 1.73906e-08
6.235381e-09 1.2059221e-08 3.0275509e-09 1.484149e-09 1.13672165e-08 2.321444e-08 1.4666652e-09 1.550682e-09
3.4884877e-09 1.9674657e-09 1.6252247e-09 4.3248374e-10 1.043271e-09 2.344793e-09 2.131355e-09 7.3683286e-09
5.2224305e-09 4.1578554e-09 3.831447e-09 3.063817e-09 2.6830957e-09 1.0094483e-08 3.8707464e-09 2.0699167e-10

exp_avg f4 [8, 128]
00000000: bea5 1cb5 63d9 b932 7200 3fb5 17f3 9f33
00000010: a10d ebb5 a699 1335 fbeb b734 cf13 9835
00000020: 54eb 24b1 aeb6 c530 032a beb0 66ce 532f
00000030: 0f46 e3af 56f2 9fad bb24 47af 7edc 3dae
00000040: 306f 0336 015d f434 2e1c 3c33 2327 2136
00000050: 9766 d835 c3a2 1eb6 76b2 13b5 7845 2935
00000060: f3f0 b52d bcc7 c22f f864 42ae 7cb5 5ab1
00000070: 71b1 f42f 1813 6031 125e b231 2441 4831
00000080: 4b23 3036 322e c3b3 55bc fbb3 fbba a2b2
00000090: 358c 0036 9964 26b5 7eb7 e935 3ed1 2eb5
000000a0: 5c34 2fb1 1f1b 9531 79ae 9bb1 840c fb30
000000b0: a1a3 24b1 803a 832d 181b 2130 c3a2 8431
000000c0: a799 8c34 c68c d6b3 1bad 8635 2a37 dab5
000000d0: 1d9b 6fb5 ed9d 0536 9b4b 0f35 315b 5434
000000e0: 4203 bfb1 0088 63b0 8aeb 2630 889a e3b0
000000f0: 8ffe fdb0 fafb 9bb1 5b8b c0b1 db50 2bb1
00000100: d043 a735 90c5 f0b5 bcb0 bdb4 1c4c 2d36
00000110: e204 9335 1228 0c35 de6a dab4 e10c b0b4
00000120: 703a 742f a94f 5530 eee9 c92f 0951 9231
00000130: 6e8a 47b1 64ff 6a30 43a4 2b31 b218 60b1
00000140: a888 a035 f236 40b4 1728 2ab5 06ce 0ab6
00000150: 1149 2bb6 dfaa 6fb4 9857 6e35 f015 0336
00000160: 361e 6cb1 3c99 ef30 a98b 3331 9fb7 15ad
00000170: 9131 3431 c995 90b0 9f7c 34b1 1c9a 12b0
00000180: d62f 4435 de38 b3b4 8a59 2734 2a81 3a33
00000190: bf30 b6b5 37ec 24b5 ed3c b535 6963 76b5
000001a0: 5c46 6eaf adce ae30 ba8b cb2f 85e5 5731
000001b0: 66de edb0 983a 5aae ac86 b32e fafd f4af
000001c0: ab24 04b6 a889 4b35 5f71 10b5 9046 55b5
000001d0: 2c19 6d34 584f 5bb6 9a39 2d34 78f2 97b5
000001e0: a1cf 86ae 701f 5f31 5cb5 a52f 362b da2d
000001f0: b0e5 bdb1 a6a6 2d31 6179 6daf bc16 08b1
00000200: d8b4 86b5 62de 10b5 eeb1 9035 6db0 4bb5
00000210: 1899 ef35 bf19 cab5 717c 46b5 8033 f134
00000220: dd1e a8b0 ad78 2e31 efd1 cf2e d8f2 98b1
00000230: 2063 bab1 dfee 1cb0 607f b62c b934 55b0
00000240: 9d0b 9634 02ad fab3 504e cdb4 1030 0a35
00000250: 9b5d e6b5 d4ae f2b4 e8a1 c6b4 7cb0 0935
00000260: 3aec df30 d2f7 5f31 5e90 e130 f26f 28b0
00000270: ac51 2931 7cab d3b0 31df 702f 2517 8aaf
00000280: 7f32 6235 39a6 1cb5 7bf9 4334 6430 80b5
00000290: 8948 8035 de38 a335 7707 9935 8d08 eeb2
000002a0: 5cad d52b 0a68 9031 6c88 17b1 a442 95ad
000002b0: ee88 b1b0 771b b330 aab3 e62f f2e7 4331
000002c0: b889 18b5 5b8b 7835 973b 9534 2e0e b5b4
000002d0: 5c07 1fb5 d1f3 8c35 8c0d 8eb5 049f d834
000002e0: 9896 b830 4e51 1830 5f45 c32f 5867 2d31
000002f0: 96fe 88af c7ba 1fb1 ee78 3f31 e8b2 3cb0
00000300: 66b0 66b5 4542 e634 86a0 44b5 69b3 c535
00000310: 9f1f 67b5 c3ba afb3 6c65 d5b5 e000 d734
00000320: 96db 99b1 a105 0d2f f410 b8b0 ad44 e92f
00000330: b1de c0ae c2f0 8e31 72fc 5bb1 3ff5 9031
00000340: 91c7 c933 2e6c 4635 a7e5 9935 16ac e2b5
00000350: 0761 5235 135d 11b4 206a b735 aafe 1735
00000360: cc59 6a30 5869 4c31 43dc 1b30 8e64 ce2f
00000370: 0fa1 cab0 8b55 1ab1 ea36 dfb0 06f8 cfb0
00000380: 5fdc 6232 2009 8035 508e 0b34 3aea 57b5
00000390: b535 12b5 196e 4ab5 4e62 a535 58f1 efb5
000003a0: d2df cb2e dace 43b0 0753 20b0 82dd 5fb0
000003b0: cd42 4cb1 0ec1 8fb1 0bd5 90b0 5613 20af
000003c0: 8c35 63b5 012a fdb4 ea62 17b5 d4d6 94b4
000003d0: 83a1 5935 c74c d235 f3ff 8335 fbcc e435
000003e0: 3205 6830 124d 2331 a247 b530 5a91 c8b0
000003f0: a429 ef2e 417e 94ae 9fcb 0bb1 ac8c aeb1
-5.8355715e-07 2.163569e-08 -7.115369e-07 7.448232e-08 -1.7512831e-06 5.4985355e-07 3.4258105e-07 1.1330648e-06
-2.399891e-09 1.4385557e-09 -1.383626e-09 1.9263666e-10 -4.134084e-10 -1.8183826e-11 -1.8111994e-10 -4.316946e-11
1.958524e-06 4.551621e-07 4.379779e-08 2.401365e-06 1.6123112e-06 -2.3638574e-06 -5.502146e-07 6.3058496e-07
2.068432e-11 3.5430314e-10 -4.420017e-11 -3.1826337e-09 4.450942e-10 3.2607144e-09 5.1911764e-09 2.9140859e-09
2.6246587e-06 -9.088798e-08 -1.1722356e-07 -1.8944311e-08 1.9155098e-06 -6.198621e-07 1.7413256e-06 -6.512454e-07
-2.5495615e-09 4.339554e-09 -4.530929e-09 1.8266211e-09 -2.3958153e-09 1.4918955e-11 5.860996e-10 3.8602095e-09
2.618883e-07 -9.990758e-08 1.0034158e-06 -1.625832e-06 -8.926016e-07 1.991047e-06 5.338167e-07 1.9777214e-07
-5.559202e-09 -8.2775387e-10 6.072517e-10 -1.6560344e-09 -1.8480523e-09 -4.53974e-09 -5.6037783e-09 -2.4929736e-09
1.2462206e-06 -1.7938892e-06 -3.5332585e-07 2.582331e-06 1.0953775e-06 5.2212374e-07 -4.068342e-07 -3.2791925e-07
2.2212432e-10 7.760215e-10 3.6727904e-10 4.258372e-09 -2.9037e-09 8.5491636e-10 2.4977147e-09 -3.2610328e-09
1.1960701e-06 -1.7901382e-07 -6.3388273e-07 -2.0683524e-06 -2.5523516e-06 -2.2320772e-07 8.8789375e-07 1.953329e-06
-3.4359693e-09 1.743309e-09 2.6127316e-09 -8.5104415e-12 2.6221623e-09 -1.051995e-09 -2.6264286e-09 -5.3333493e-10
7.30853e-07 -3.3382724e-07 1.5585661e-07 4.3423974e-08 -1.3574244e-06 -6.14385e-07 1.3503283e-06 -9.17868e-07
-2.167097e-10 1.2718907e-09 3.7024767e-10 3.1417084e-09 -1.7307229e-09 -4.9619503e-11 8.1639e-11 -4.4563803e-10
-1.9690876e-06 7.582371e-07 -5.3809157e-07 -7.9451365e-07 2.2081502e-07 -3.2679727e-06 1.6132836e-07 -1.1320944e-06
-6.130497e-11 3.246864e-09 3.014219e-10 2.480292e-11 -5.5267364e-09 2.5269542e-09 -2.1598147e-10 -1.9803528e-09
-1.003641e-06 -5.396779e-07 1.078062e-06 -7.5880126e-07 1.7851444e-06 -1.5057666e-06 -7.3941834e-07 4.492722e-07
-1.2232381e-09 2.5388929e-09 9.450562e-11 -4.4513904e-09 -5.4245817e-09 -5.7091926e-10 5.1868926e-12 -7.756387e-10
2.7948127e-07 -1.1673002e-07 -3.8241205e-07 5.1478946e-07 -1.7163578e-06 -4.5203217e-07 -3.6998176e-07 5.1293296e-07
1.6292525e-09 3.259164e-09 1.6411936e-09 -6.127713e-10 2.4639162e-09 -1.5401009e-09 2.1907166e-10 -2.51185e-10
8.426504e-07 -5.8356414e-07 1.825155e-07 -9.550827e-07 9.557854e-07 1.2160997e-06 1.1401561e-06 -2.7710735e-08
1.5182677e-12 4.2027795e-09 -2.2050939e-09 -1.6968933e-11 -1.2917363e-09 1.303177e-09 4.1964415e-10 2.850808e-09
-5.682482e-07 9.258999e-07 2.779677e-07 -3.3724194e-07 -5.9242825e-07 1.0501773e-06 -1.0583767e-06 4.0348834e-07
1.3430563e-09 5.541282e-10 3.5519584e-10 2.5233557e-09 -2.491915e-10 -2.3243716e-09 2.7862899e-09 -6.864824e-10
-8.593837e-07 4.2889056e-07 -7.324928e-07 1.4729859e-06 -8.610022e-07 -8.183044e-08 -1.5899254e-06 4.0047507e-07
-4.47785e-09 1.2825875e-10 -1.339258e-09 4.243125e-10 -8.770707e-11 4.160115e-09 -3.2012193e-09 4.218833e-09
9.396093e-08 7.391817e-07 1.1466226e-06 -1.6888396e-06 7.837229e-07 -1.3538038e-07 1.3665449e-06 5.662247e-07
8.5256313e-10 2.9745788e-09 5.670168e-10 3.754263e-10 -1.474321e-09 -2.2458575e-09 -1.6240993e-09 -1.5131725e-09
1.3205038e-08 9.539399e-07 1.2997157e-07 -8.0434586e-07 -5.446739e-07 -7.541108e-07 1.2322068e-06 -1.7877128e-06
9.27113e-11 -7.123454e-10 -5.832565e-10 -8.144171e-10 -2.972388e-09 -4.1837955e-09 -1.0537929e-09 -1.4558785e-10
-8.464201e-07 -4.7155484e-07 -5.639582e-07 -2.7723456e-07 8.107383e-07 1.5668564e-06 9.834752e-07 1.7046981e-06
8.440849e-10 2.3763431e-09 1.3189843e-09 -1.4593227e-09 1.08758585e-10 -6.752688e-11 -2.0342907e-09 -5.080059e-09
